{"format": "layers-model", "generatedBy": "keras v3.13.0", "convertedBy": "TensorFlow.js Converter v4.22.0", "modelTopology": {"keras_version": "3.13.0", "model_config": {"class_name": "Sequential", "config": {"name": "sequential", "trainable": true, "dtype": {"class_name": "DTypePolicy", "config": {"name": "float32"}, "shared_object_id": 6389291280}, "layers": [{"class_name": "InputLayer", "config": {"batch_shape": [null, 224, 224, 3], "dtype": "float32", "sparse": false, "ragged": false, "name": "input_layer_1", "optional": false}}, {"class_name": "Functional", "config": {"name": "xception", "trainable": true, "layers": [{"class_name": "InputLayer", "config": {"batch_shape": [null, 224, 224, 3], "dtype": "float32", "sparse": false, "ragged": false, "name": "input_layer", "optional": false}, "name": "input_layer", "inbound_nodes": []}, {"class_name": "Conv2D", "config": {"name": "block1_conv1", "trainable": false, "dtype": {"class_name": "DTypePolicy", "config": {"name": "float32"}}, "filters": 32, "kernel_size": [3, 3], "strides": [2, 2], "padding": "valid", "data_format": "channels_last", "dilation_rate": [1, 1], "groups": 1, "activation": "linear", "use_bias": false, "kernel_initializer": {"class_name": "GlorotUniform", "config": {"seed": null}}, "bias_initializer": {"class_name": "Zeros", "config": {}}, "kernel_regularizer": null, "bias_regularizer": null, "activity_regularizer": null, "kernel_constraint": null, "bias_constraint": null}, "build_config": {"input_shape": [null, 224, 224, 3]}, "name": "block1_conv1", "inbound_nodes": [{"args": [{"class_name": "__keras_tensor__", "config": {"shape": [null, 224, 224, 3], "dtype": "float32", "keras_history": ["input_layer", 0, 0]}}], "kwargs": {}}]}, {"class_name": "BatchNormalization", "config": {"name": "block1_conv1_bn", "trainable": false, "dtype": {"class_name": "DTypePolicy", "config": {"name": "float32"}, "shared_object_id": 6389291280}, "axis": -1, "momentum": 0.99, "epsilon": 0.001, "center": true, "scale": true, "beta_initializer": {"class_name": "Zeros", "config": {}}, "gamma_initializer": {"class_name": "Ones", "config": {}}, "moving_mean_initializer": {"class_name": "Zeros", "config": {}}, "moving_variance_initializer": {"class_name": "Ones", "config": {}}, "beta_regularizer": null, "gamma_regularizer": null, "beta_constraint": null, "gamma_constraint": null, "synchronized": false}, "build_config": {"input_shape": [null, 111, 111, 32]}, "name": "block1_conv1_bn", "inbound_nodes": [{"args": [{"class_name": "__keras_tensor__", "config": {"shape": [null, 111, 111, 32], "dtype": "float32", "keras_history": ["block1_conv1", 0, 0]}}], "kwargs": {"mask": null}}]}, {"class_name": "Activation", "config": {"name": "block1_conv1_act", "trainable": false, "dtype": {"class_name": "DTypePolicy", "config": {"name": "float32"}, "shared_object_id": 6389291280}, "activation": "relu"}, "name": "block1_conv1_act", "inbound_nodes": [{"args": [{"class_name": "__keras_tensor__", "config": {"shape": [null, 111, 111, 32], "dtype": "float32", "keras_history": ["block1_conv1_bn", 0, 0]}}], "kwargs": {}}]}, {"class_name": "Conv2D", "config": {"name": "block1_conv2", "trainable": false, "dtype": {"class_name": "DTypePolicy", "config": {"name": "float32"}, "shared_object_id": 6389291280}, "filters": 64, "kernel_size": [3, 3], "strides": [1, 1], "padding": "valid", "data_format": "channels_last", "dilation_rate": [1, 1], "groups": 1, "activation": "linear", "use_bias": false, "kernel_initializer": {"class_name": "GlorotUniform", "config": {"seed": null}}, "bias_initializer": {"class_name": "Zeros", "config": {}}, "kernel_regularizer": null, "bias_regularizer": null, "activity_regularizer": null, "kernel_constraint": null, "bias_constraint": null}, "build_config": {"input_shape": [null, 111, 111, 32]}, "name": "block1_conv2", "inbound_nodes": [{"args": [{"class_name": "__keras_tensor__", "config": {"shape": [null, 111, 111, 32], "dtype": "float32", "keras_history": ["block1_conv1_act", 0, 0]}}], "kwargs": {}}]}, {"class_name": "BatchNormalization", "config": {"name": "block1_conv2_bn", "trainable": false, "dtype": {"class_name": "DTypePolicy", "config": {"name": "float32"}, "shared_object_id": 6389291280}, "axis": -1, "momentum": 0.99, "epsilon": 0.001, "center": true, "scale": true, "beta_initializer": {"class_name": "Zeros", "config": {}}, "gamma_initializer": {"class_name": "Ones", "config": {}}, "moving_mean_initializer": {"class_name": "Zeros", "config": {}}, "moving_variance_initializer": {"class_name": "Ones", "config": {}}, "beta_regularizer": null, "gamma_regularizer": null, "beta_constraint": null, "gamma_constraint": null, "synchronized": false}, "build_config": {"input_shape": [null, 109, 109, 64]}, "name": "block1_conv2_bn", "inbound_nodes": [{"args": [{"class_name": "__keras_tensor__", "config": {"shape": [null, 109, 109, 64], "dtype": "float32", "keras_history": ["block1_conv2", 0, 0]}}], "kwargs": {"mask": null}}]}, {"class_name": "Activation", "config": {"name": "block1_conv2_act", "trainable": false, "dtype": {"class_name": "DTypePolicy", "config": {"name": "float32"}, "shared_object_id": 6389291280}, "activation": "relu"}, "name": "block1_conv2_act", "inbound_nodes": [{"args": [{"class_name": "__keras_tensor__", "config": {"shape": [null, 109, 109, 64], "dtype": "float32", "keras_history": ["block1_conv2_bn", 0, 0]}}], "kwargs": {}}]}, {"class_name": "SeparableConv2D", "config": {"name": "block2_sepconv1", "trainable": false, "dtype": {"class_name": "DTypePolicy", "config": {"name": "float32"}, "shared_object_id": 6389291280}, "depth_multiplier": 1, "filters": 128, "kernel_size": [3, 3], "strides": [1, 1], "padding": "same", "data_format": "channels_last", "dilation_rate": [1, 1], "activation": "linear", "use_bias": false, "depthwise_initializer": {"class_name": "GlorotUniform", "config": {"seed": null}}, "pointwise_initializer": {"class_name": "GlorotUniform", "config": {"seed": null}}, "bias_initializer": {"class_name": "Zeros", "config": {}}, "depthwise_regularizer": null, "pointwise_regularizer": null, "bias_regularizer": null, "activity_regularizer": null, "depthwise_constraint": null, "pointwise_constraint": null, "bias_constraint": null}, "build_config": {"input_shape": [null, 109, 109, 64]}, "name": "block2_sepconv1", "inbound_nodes": [{"args": [{"class_name": "__keras_tensor__", "config": {"shape": [null, 109, 109, 64], "dtype": "float32", "keras_history": ["block1_conv2_act", 0, 0]}}], "kwargs": {}}]}, {"class_name": "BatchNormalization", "config": {"name": "block2_sepconv1_bn", "trainable": false, "dtype": {"class_name": "DTypePolicy", "config": {"name": "float32"}, "shared_object_id": 6389291280}, "axis": -1, "momentum": 0.99, "epsilon": 0.001, "center": true, "scale": true, "beta_initializer": {"class_name": "Zeros", "config": {}}, "gamma_initializer": {"class_name": "Ones", "config": {}}, "moving_mean_initializer": {"class_name": "Zeros", "config": {}}, "moving_variance_initializer": {"class_name": "Ones", "config": {}}, "beta_regularizer": null, "gamma_regularizer": null, "beta_constraint": null, "gamma_constraint": null, "synchronized": false}, "build_config": {"input_shape": [null, 109, 109, 128]}, "name": "block2_sepconv1_bn", "inbound_nodes": [{"args": [{"class_name": "__keras_tensor__", "config": {"shape": [null, 109, 109, 128], "dtype": "float32", "keras_history": ["block2_sepconv1", 0, 0]}}], "kwargs": {"mask": null}}]}, {"class_name": "Activation", "config": {"name": "block2_sepconv2_act", "trainable": false, "dtype": {"class_name": "DTypePolicy", "config": {"name": "float32"}, "shared_object_id": 6389291280}, "activation": "relu"}, "name": "block2_sepconv2_act", "inbound_nodes": [{"args": [{"class_name": "__keras_tensor__", "config": {"shape": [null, 109, 109, 128], "dtype": "float32", "keras_history": ["block2_sepconv1_bn", 0, 0]}}], "kwargs": {}}]}, {"class_name": "SeparableConv2D", "config": {"name": "block2_sepconv2", "trainable": false, "dtype": {"class_name": "DTypePolicy", "config": {"name": "float32"}, "shared_object_id": 6389291280}, "depth_multiplier": 1, "filters": 128, "kernel_size": [3, 3], "strides": [1, 1], "padding": "same", "data_format": "channels_last", "dilation_rate": [1, 1], "activation": "linear", "use_bias": false, "depthwise_initializer": {"class_name": "GlorotUniform", "config": {"seed": null}}, "pointwise_initializer": {"class_name": "GlorotUniform", "config": {"seed": null}}, "bias_initializer": {"class_name": "Zeros", "config": {}}, "depthwise_regularizer": null, "pointwise_regularizer": null, "bias_regularizer": null, "activity_regularizer": null, "depthwise_constraint": null, "pointwise_constraint": null, "bias_constraint": null}, "build_config": {"input_shape": [null, 109, 109, 128]}, "name": "block2_sepconv2", "inbound_nodes": [{"args": [{"class_name": "__keras_tensor__", "config": {"shape": [null, 109, 109, 128], "dtype": "float32", "keras_history": ["block2_sepconv2_act", 0, 0]}}], "kwargs": {}}]}, {"class_name": "BatchNormalization", "config": {"name": "block2_sepconv2_bn", "trainable": false, "dtype": {"class_name": "DTypePolicy", "config": {"name": "float32"}, "shared_object_id": 6389291280}, "axis": -1, "momentum": 0.99, "epsilon": 0.001, "center": true, "scale": true, "beta_initializer": {"class_name": "Zeros", "config": {}}, "gamma_initializer": {"class_name": "Ones", "config": {}}, "moving_mean_initializer": {"class_name": "Zeros", "config": {}}, "moving_variance_initializer": {"class_name": "Ones", "config": {}}, "beta_regularizer": null, "gamma_regularizer": null, "beta_constraint": null, "gamma_constraint": null, "synchronized": false}, "build_config": {"input_shape": [null, 109, 109, 128]}, "name": "block2_sepconv2_bn", "inbound_nodes": [{"args": [{"class_name": "__keras_tensor__", "config": {"shape": [null, 109, 109, 128], "dtype": "float32", "keras_history": ["block2_sepconv2", 0, 0]}}], "kwargs": {"mask": null}}]}, {"class_name": "Conv2D", "config": {"name": "conv2d", "trainable": false, "dtype": {"class_name": "DTypePolicy", "config": {"name": "float32"}, "shared_object_id": 6389291280}, "filters": 128, "kernel_size": [1, 1], "strides": [2, 2], "padding": "same", "data_format": "channels_last", "dilation_rate": [1, 1], "groups": 1, "activation": "linear", "use_bias": false, "kernel_initializer": {"class_name": "GlorotUniform", "config": {"seed": null}}, "bias_initializer": {"class_name": "Zeros", "config": {}}, "kernel_regularizer": null, "bias_regularizer": null, "activity_regularizer": null, "kernel_constraint": null, "bias_constraint": null}, "build_config": {"input_shape": [null, 109, 109, 64]}, "name": "conv2d", "inbound_nodes": [{"args": [{"class_name": "__keras_tensor__", "config": {"shape": [null, 109, 109, 64], "dtype": "float32", "keras_history": ["block1_conv2_act", 0, 0]}}], "kwargs": {}}]}, {"class_name": "MaxPooling2D", "config": {"name": "block2_pool", "trainable": false, "dtype": {"class_name": "DTypePolicy", "config": {"name": "float32"}, "shared_object_id": 6389291280}, "pool_size": [3, 3], "padding": "same", "strides": [2, 2], "data_format": "channels_last"}, "name": "block2_pool", "inbound_nodes": [{"args": [{"class_name": "__keras_tensor__", "config": {"shape": [null, 109, 109, 128], "dtype": "float32", "keras_history": ["block2_sepconv2_bn", 0, 0]}}], "kwargs": {}}]}, {"class_name": "BatchNormalization", "config": {"name": "batch_normalization", "trainable": false, "dtype": {"class_name": "DTypePolicy", "config": {"name": "float32"}, "shared_object_id": 6389291280}, "axis": -1, "momentum": 0.99, "epsilon": 0.001, "center": true, "scale": true, "beta_initializer": {"class_name": "Zeros", "config": {}}, "gamma_initializer": {"class_name": "Ones", "config": {}}, "moving_mean_initializer": {"class_name": "Zeros", "config": {}}, "moving_variance_initializer": {"class_name": "Ones", "config": {}}, "beta_regularizer": null, "gamma_regularizer": null, "beta_constraint": null, "gamma_constraint": null, "synchronized": false}, "build_config": {"input_shape": [null, 55, 55, 128]}, "name": "batch_normalization", "inbound_nodes": [{"args": [{"class_name": "__keras_tensor__", "config": {"shape": [null, 55, 55, 128], "dtype": "float32", "keras_history": ["conv2d", 0, 0]}}], "kwargs": {"mask": null}}]}, {"class_name": "Add", "config": {"name": "add", "trainable": false, "dtype": {"class_name": "DTypePolicy", "config": {"name": "float32"}, "shared_object_id": 6389291280}}, "build_config": {"input_shape": [[null, 55, 55, 128], [null, 55, 55, 128]]}, "name": "add", "inbound_nodes": [{"args": [[{"class_name": "__keras_tensor__", "config": {"shape": [null, 55, 55, 128], "dtype": "float32", "keras_history": ["block2_pool", 0, 0]}}, {"class_name": "__keras_tensor__", "config": {"shape": [null, 55, 55, 128], "dtype": "float32", "keras_history": ["batch_normalization", 0, 0]}}]], "kwargs": {}}]}, {"class_name": "Activation", "config": {"name": "block3_sepconv1_act", "trainable": false, "dtype": {"class_name": "DTypePolicy", "config": {"name": "float32"}, "shared_object_id": 6389291280}, "activation": "relu"}, "name": "block3_sepconv1_act", "inbound_nodes": [{"args": [{"class_name": "__keras_tensor__", "config": {"shape": [null, 55, 55, 128], "dtype": "float32", "keras_history": ["add", 0, 0]}}], "kwargs": {}}]}, {"class_name": "SeparableConv2D", "config": {"name": "block3_sepconv1", "trainable": false, "dtype": {"class_name": "DTypePolicy", "config": {"name": "float32"}, "shared_object_id": 6389291280}, "depth_multiplier": 1, "filters": 256, "kernel_size": [3, 3], "strides": [1, 1], "padding": "same", "data_format": "channels_last", "dilation_rate": [1, 1], "activation": "linear", "use_bias": false, "depthwise_initializer": {"class_name": "GlorotUniform", "config": {"seed": null}}, "pointwise_initializer": {"class_name": "GlorotUniform", "config": {"seed": null}}, "bias_initializer": {"class_name": "Zeros", "config": {}}, "depthwise_regularizer": null, "pointwise_regularizer": null, "bias_regularizer": null, "activity_regularizer": null, "depthwise_constraint": null, "pointwise_constraint": null, "bias_constraint": null}, "build_config": {"input_shape": [null, 55, 55, 128]}, "name": "block3_sepconv1", "inbound_nodes": [{"args": [{"class_name": "__keras_tensor__", "config": {"shape": [null, 55, 55, 128], "dtype": "float32", "keras_history": ["block3_sepconv1_act", 0, 0]}}], "kwargs": {}}]}, {"class_name": "BatchNormalization", "config": {"name": "block3_sepconv1_bn", "trainable": false, "dtype": {"class_name": "DTypePolicy", "config": {"name": "float32"}, "shared_object_id": 6389291280}, "axis": -1, "momentum": 0.99, "epsilon": 0.001, "center": true, "scale": true, "beta_initializer": {"class_name": "Zeros", "config": {}}, "gamma_initializer": {"class_name": "Ones", "config": {}}, "moving_mean_initializer": {"class_name": "Zeros", "config": {}}, "moving_variance_initializer": {"class_name": "Ones", "config": {}}, "beta_regularizer": null, "gamma_regularizer": null, "beta_constraint": null, "gamma_constraint": null, "synchronized": false}, "build_config": {"input_shape": [null, 55, 55, 256]}, "name": "block3_sepconv1_bn", "inbound_nodes": [{"args": [{"class_name": "__keras_tensor__", "config": {"shape": [null, 55, 55, 256], "dtype": "float32", "keras_history": ["block3_sepconv1", 0, 0]}}], "kwargs": {"mask": null}}]}, {"class_name": "Activation", "config": {"name": "block3_sepconv2_act", "trainable": false, "dtype": {"class_name": "DTypePolicy", "config": {"name": "float32"}, "shared_object_id": 6389291280}, "activation": "relu"}, "name": "block3_sepconv2_act", "inbound_nodes": [{"args": [{"class_name": "__keras_tensor__", "config": {"shape": [null, 55, 55, 256], "dtype": "float32", "keras_history": ["block3_sepconv1_bn", 0, 0]}}], "kwargs": {}}]}, {"class_name": "SeparableConv2D", "config": {"name": "block3_sepconv2", "trainable": false, "dtype": {"class_name": "DTypePolicy", "config": {"name": "float32"}, "shared_object_id": 6389291280}, "depth_multiplier": 1, "filters": 256, "kernel_size": [3, 3], "strides": [1, 1], "padding": "same", "data_format": "channels_last", "dilation_rate": [1, 1], "activation": "linear", "use_bias": false, "depthwise_initializer": {"class_name": "GlorotUniform", "config": {"seed": null}}, "pointwise_initializer": {"class_name": "GlorotUniform", "config": {"seed": null}}, "bias_initializer": {"class_name": "Zeros", "config": {}}, "depthwise_regularizer": null, "pointwise_regularizer": null, "bias_regularizer": null, "activity_regularizer": null, "depthwise_constraint": null, "pointwise_constraint": null, "bias_constraint": null}, "build_config": {"input_shape": [null, 55, 55, 256]}, "name": "block3_sepconv2", "inbound_nodes": [{"args": [{"class_name": "__keras_tensor__", "config": {"shape": [null, 55, 55, 256], "dtype": "float32", "keras_history": ["block3_sepconv2_act", 0, 0]}}], "kwargs": {}}]}, {"class_name": "BatchNormalization", "config": {"name": "block3_sepconv2_bn", "trainable": false, "dtype": {"class_name": "DTypePolicy", "config": {"name": "float32"}, "shared_object_id": 6389291280}, "axis": -1, "momentum": 0.99, "epsilon": 0.001, "center": true, "scale": true, "beta_initializer": {"class_name": "Zeros", "config": {}}, "gamma_initializer": {"class_name": "Ones", "config": {}}, "moving_mean_initializer": {"class_name": "Zeros", "config": {}}, "moving_variance_initializer": {"class_name": "Ones", "config": {}}, "beta_regularizer": null, "gamma_regularizer": null, "beta_constraint": null, "gamma_constraint": null, "synchronized": false}, "build_config": {"input_shape": [null, 55, 55, 256]}, "name": "block3_sepconv2_bn", "inbound_nodes": [{"args": [{"class_name": "__keras_tensor__", "config": {"shape": [null, 55, 55, 256], "dtype": "float32", "keras_history": ["block3_sepconv2", 0, 0]}}], "kwargs": {"mask": null}}]}, {"class_name": "Conv2D", "config": {"name": "conv2d_1", "trainable": false, "dtype": {"class_name": "DTypePolicy", "config": {"name": "float32"}, "shared_object_id": 6389291280}, "filters": 256, "kernel_size": [1, 1], "strides": [2, 2], "padding": "same", "data_format": "channels_last", "dilation_rate": [1, 1], "groups": 1, "activation": "linear", "use_bias": false, "kernel_initializer": {"class_name": "GlorotUniform", "config": {"seed": null}}, "bias_initializer": {"class_name": "Zeros", "config": {}}, "kernel_regularizer": null, "bias_regularizer": null, "activity_regularizer": null, "kernel_constraint": null, "bias_constraint": null}, "build_config": {"input_shape": [null, 55, 55, 128]}, "name": "conv2d_1", "inbound_nodes": [{"args": [{"class_name": "__keras_tensor__", "config": {"shape": [null, 55, 55, 128], "dtype": "float32", "keras_history": ["add", 0, 0]}}], "kwargs": {}}]}, {"class_name": "MaxPooling2D", "config": {"name": "block3_pool", "trainable": false, "dtype": {"class_name": "DTypePolicy", "config": {"name": "float32"}, "shared_object_id": 6389291280}, "pool_size": [3, 3], "padding": "same", "strides": [2, 2], "data_format": "channels_last"}, "name": "block3_pool", "inbound_nodes": [{"args": [{"class_name": "__keras_tensor__", "config": {"shape": [null, 55, 55, 256], "dtype": "float32", "keras_history": ["block3_sepconv2_bn", 0, 0]}}], "kwargs": {}}]}, {"class_name": "BatchNormalization", "config": {"name": "batch_normalization_1", "trainable": false, "dtype": {"class_name": "DTypePolicy", "config": {"name": "float32"}, "shared_object_id": 6389291280}, "axis": -1, "momentum": 0.99, "epsilon": 0.001, "center": true, "scale": true, "beta_initializer": {"class_name": "Zeros", "config": {}}, "gamma_initializer": {"class_name": "Ones", "config": {}}, "moving_mean_initializer": {"class_name": "Zeros", "config": {}}, "moving_variance_initializer": {"class_name": "Ones", "config": {}}, "beta_regularizer": null, "gamma_regularizer": null, "beta_constraint": null, "gamma_constraint": null, "synchronized": false}, "build_config": {"input_shape": [null, 28, 28, 256]}, "name": "batch_normalization_1", "inbound_nodes": [{"args": [{"class_name": "__keras_tensor__", "config": {"shape": [null, 28, 28, 256], "dtype": "float32", "keras_history": ["conv2d_1", 0, 0]}}], "kwargs": {"mask": null}}]}, {"class_name": "Add", "config": {"name": "add_1", "trainable": false, "dtype": {"class_name": "DTypePolicy", "config": {"name": "float32"}, "shared_object_id": 6389291280}}, "build_config": {"input_shape": [[null, 28, 28, 256], [null, 28, 28, 256]]}, "name": "add_1", "inbound_nodes": [{"args": [[{"class_name": "__keras_tensor__", "config": {"shape": [null, 28, 28, 256], "dtype": "float32", "keras_history": ["block3_pool", 0, 0]}}, {"class_name": "__keras_tensor__", "config": {"shape": [null, 28, 28, 256], "dtype": "float32", "keras_history": ["batch_normalization_1", 0, 0]}}]], "kwargs": {}}]}, {"class_name": "Activation", "config": {"name": "block4_sepconv1_act", "trainable": false, "dtype": {"class_name": "DTypePolicy", "config": {"name": "float32"}, "shared_object_id": 6389291280}, "activation": "relu"}, "name": "block4_sepconv1_act", "inbound_nodes": [{"args": [{"class_name": "__keras_tensor__", "config": {"shape": [null, 28, 28, 256], "dtype": "float32", "keras_history": ["add_1", 0, 0]}}], "kwargs": {}}]}, {"class_name": "SeparableConv2D", "config": {"name": "block4_sepconv1", "trainable": false, "dtype": {"class_name": "DTypePolicy", "config": {"name": "float32"}, "shared_object_id": 6389291280}, "depth_multiplier": 1, "filters": 728, "kernel_size": [3, 3], "strides": [1, 1], "padding": "same", "data_format": "channels_last", "dilation_rate": [1, 1], "activation": "linear", "use_bias": false, "depthwise_initializer": {"class_name": "GlorotUniform", "config": {"seed": null}}, "pointwise_initializer": {"class_name": "GlorotUniform", "config": {"seed": null}}, "bias_initializer": {"class_name": "Zeros", "config": {}}, "depthwise_regularizer": null, "pointwise_regularizer": null, "bias_regularizer": null, "activity_regularizer": null, "depthwise_constraint": null, "pointwise_constraint": null, "bias_constraint": null}, "build_config": {"input_shape": [null, 28, 28, 256]}, "name": "block4_sepconv1", "inbound_nodes": [{"args": [{"class_name": "__keras_tensor__", "config": {"shape": [null, 28, 28, 256], "dtype": "float32", "keras_history": ["block4_sepconv1_act", 0, 0]}}], "kwargs": {}}]}, {"class_name": "BatchNormalization", "config": {"name": "block4_sepconv1_bn", "trainable": false, "dtype": {"class_name": "DTypePolicy", "config": {"name": "float32"}, "shared_object_id": 6389291280}, "axis": -1, "momentum": 0.99, "epsilon": 0.001, "center": true, "scale": true, "beta_initializer": {"class_name": "Zeros", "config": {}}, "gamma_initializer": {"class_name": "Ones", "config": {}}, "moving_mean_initializer": {"class_name": "Zeros", "config": {}}, "moving_variance_initializer": {"class_name": "Ones", "config": {}}, "beta_regularizer": null, "gamma_regularizer": null, "beta_constraint": null, "gamma_constraint": null, "synchronized": false}, "build_config": {"input_shape": [null, 28, 28, 728]}, "name": "block4_sepconv1_bn", "inbound_nodes": [{"args": [{"class_name": "__keras_tensor__", "config": {"shape": [null, 28, 28, 728], "dtype": "float32", "keras_history": ["block4_sepconv1", 0, 0]}}], "kwargs": {"mask": null}}]}, {"class_name": "Activation", "config": {"name": "block4_sepconv2_act", "trainable": false, "dtype": {"class_name": "DTypePolicy", "config": {"name": "float32"}, "shared_object_id": 6389291280}, "activation": "relu"}, "name": "block4_sepconv2_act", "inbound_nodes": [{"args": [{"class_name": "__keras_tensor__", "config": {"shape": [null, 28, 28, 728], "dtype": "float32", "keras_history": ["block4_sepconv1_bn", 0, 0]}}], "kwargs": {}}]}, {"class_name": "SeparableConv2D", "config": {"name": "block4_sepconv2", "trainable": false, "dtype": {"class_name": "DTypePolicy", "config": {"name": "float32"}, "shared_object_id": 6389291280}, "depth_multiplier": 1, "filters": 728, "kernel_size": [3, 3], "strides": [1, 1], "padding": "same", "data_format": "channels_last", "dilation_rate": [1, 1], "activation": "linear", "use_bias": false, "depthwise_initializer": {"class_name": "GlorotUniform", "config": {"seed": null}}, "pointwise_initializer": {"class_name": "GlorotUniform", "config": {"seed": null}}, "bias_initializer": {"class_name": "Zeros", "config": {}}, "depthwise_regularizer": null, "pointwise_regularizer": null, "bias_regularizer": null, "activity_regularizer": null, "depthwise_constraint": null, "pointwise_constraint": null, "bias_constraint": null}, "build_config": {"input_shape": [null, 28, 28, 728]}, "name": "block4_sepconv2", "inbound_nodes": [{"args": [{"class_name": "__keras_tensor__", "config": {"shape": [null, 28, 28, 728], "dtype": "float32", "keras_history": ["block4_sepconv2_act", 0, 0]}}], "kwargs": {}}]}, {"class_name": "BatchNormalization", "config": {"name": "block4_sepconv2_bn", "trainable": false, "dtype": {"class_name": "DTypePolicy", "config": {"name": "float32"}, "shared_object_id": 6389291280}, "axis": -1, "momentum": 0.99, "epsilon": 0.001, "center": true, "scale": true, "beta_initializer": {"class_name": "Zeros", "config": {}}, "gamma_initializer": {"class_name": "Ones", "config": {}}, "moving_mean_initializer": {"class_name": "Zeros", "config": {}}, "moving_variance_initializer": {"class_name": "Ones", "config": {}}, "beta_regularizer": null, "gamma_regularizer": null, "beta_constraint": null, "gamma_constraint": null, "synchronized": false}, "build_config": {"input_shape": [null, 28, 28, 728]}, "name": "block4_sepconv2_bn", "inbound_nodes": [{"args": [{"class_name": "__keras_tensor__", "config": {"shape": [null, 28, 28, 728], "dtype": "float32", "keras_history": ["block4_sepconv2", 0, 0]}}], "kwargs": {"mask": null}}]}, {"class_name": "Conv2D", "config": {"name": "conv2d_2", "trainable": false, "dtype": {"class_name": "DTypePolicy", "config": {"name": "float32"}, "shared_object_id": 6389291280}, "filters": 728, "kernel_size": [1, 1], "strides": [2, 2], "padding": "same", "data_format": "channels_last", "dilation_rate": [1, 1], "groups": 1, "activation": "linear", "use_bias": false, "kernel_initializer": {"class_name": "GlorotUniform", "config": {"seed": null}}, "bias_initializer": {"class_name": "Zeros", "config": {}}, "kernel_regularizer": null, "bias_regularizer": null, "activity_regularizer": null, "kernel_constraint": null, "bias_constraint": null}, "build_config": {"input_shape": [null, 28, 28, 256]}, "name": "conv2d_2", "inbound_nodes": [{"args": [{"class_name": "__keras_tensor__", "config": {"shape": [null, 28, 28, 256], "dtype": "float32", "keras_history": ["add_1", 0, 0]}}], "kwargs": {}}]}, {"class_name": "MaxPooling2D", "config": {"name": "block4_pool", "trainable": false, "dtype": {"class_name": "DTypePolicy", "config": {"name": "float32"}, "shared_object_id": 6389291280}, "pool_size": [3, 3], "padding": "same", "strides": [2, 2], "data_format": "channels_last"}, "name": "block4_pool", "inbound_nodes": [{"args": [{"class_name": "__keras_tensor__", "config": {"shape": [null, 28, 28, 728], "dtype": "float32", "keras_history": ["block4_sepconv2_bn", 0, 0]}}], "kwargs": {}}]}, {"class_name": "BatchNormalization", "config": {"name": "batch_normalization_2", "trainable": false, "dtype": {"class_name": "DTypePolicy", "config": {"name": "float32"}, "shared_object_id": 6389291280}, "axis": -1, "momentum": 0.99, "epsilon": 0.001, "center": true, "scale": true, "beta_initializer": {"class_name": "Zeros", "config": {}}, "gamma_initializer": {"class_name": "Ones", "config": {}}, "moving_mean_initializer": {"class_name": "Zeros", "config": {}}, "moving_variance_initializer": {"class_name": "Ones", "config": {}}, "beta_regularizer": null, "gamma_regularizer": null, "beta_constraint": null, "gamma_constraint": null, "synchronized": false}, "build_config": {"input_shape": [null, 14, 14, 728]}, "name": "batch_normalization_2", "inbound_nodes": [{"args": [{"class_name": "__keras_tensor__", "config": {"shape": [null, 14, 14, 728], "dtype": "float32", "keras_history": ["conv2d_2", 0, 0]}}], "kwargs": {"mask": null}}]}, {"class_name": "Add", "config": {"name": "add_2", "trainable": false, "dtype": {"class_name": "DTypePolicy", "config": {"name": "float32"}, "shared_object_id": 6389291280}}, "build_config": {"input_shape": [[null, 14, 14, 728], [null, 14, 14, 728]]}, "name": "add_2", "inbound_nodes": [{"args": [[{"class_name": "__keras_tensor__", "config": {"shape": [null, 14, 14, 728], "dtype": "float32", "keras_history": ["block4_pool", 0, 0]}}, {"class_name": "__keras_tensor__", "config": {"shape": [null, 14, 14, 728], "dtype": "float32", "keras_history": ["batch_normalization_2", 0, 0]}}]], "kwargs": {}}]}, {"class_name": "Activation", "config": {"name": "block5_sepconv1_act", "trainable": false, "dtype": {"class_name": "DTypePolicy", "config": {"name": "float32"}, "shared_object_id": 6389291280}, "activation": "relu"}, "name": "block5_sepconv1_act", "inbound_nodes": [{"args": [{"class_name": "__keras_tensor__", "config": {"shape": [null, 14, 14, 728], "dtype": "float32", "keras_history": ["add_2", 0, 0]}}], "kwargs": {}}]}, {"class_name": "SeparableConv2D", "config": {"name": "block5_sepconv1", "trainable": false, "dtype": {"class_name": "DTypePolicy", "config": {"name": "float32"}, "shared_object_id": 6389291280}, "depth_multiplier": 1, "filters": 728, "kernel_size": [3, 3], "strides": [1, 1], "padding": "same", "data_format": "channels_last", "dilation_rate": [1, 1], "activation": "linear", "use_bias": false, "depthwise_initializer": {"class_name": "GlorotUniform", "config": {"seed": null}}, "pointwise_initializer": {"class_name": "GlorotUniform", "config": {"seed": null}}, "bias_initializer": {"class_name": "Zeros", "config": {}}, "depthwise_regularizer": null, "pointwise_regularizer": null, "bias_regularizer": null, "activity_regularizer": null, "depthwise_constraint": null, "pointwise_constraint": null, "bias_constraint": null}, "build_config": {"input_shape": [null, 14, 14, 728]}, "name": "block5_sepconv1", "inbound_nodes": [{"args": [{"class_name": "__keras_tensor__", "config": {"shape": [null, 14, 14, 728], "dtype": "float32", "keras_history": ["block5_sepconv1_act", 0, 0]}}], "kwargs": {}}]}, {"class_name": "BatchNormalization", "config": {"name": "block5_sepconv1_bn", "trainable": false, "dtype": {"class_name": "DTypePolicy", "config": {"name": "float32"}, "shared_object_id": 6389291280}, "axis": -1, "momentum": 0.99, "epsilon": 0.001, "center": true, "scale": true, "beta_initializer": {"class_name": "Zeros", "config": {}}, "gamma_initializer": {"class_name": "Ones", "config": {}}, "moving_mean_initializer": {"class_name": "Zeros", "config": {}}, "moving_variance_initializer": {"class_name": "Ones", "config": {}}, "beta_regularizer": null, "gamma_regularizer": null, "beta_constraint": null, "gamma_constraint": null, "synchronized": false}, "build_config": {"input_shape": [null, 14, 14, 728]}, "name": "block5_sepconv1_bn", "inbound_nodes": [{"args": [{"class_name": "__keras_tensor__", "config": {"shape": [null, 14, 14, 728], "dtype": "float32", "keras_history": ["block5_sepconv1", 0, 0]}}], "kwargs": {"mask": null}}]}, {"class_name": "Activation", "config": {"name": "block5_sepconv2_act", "trainable": false, "dtype": {"class_name": "DTypePolicy", "config": {"name": "float32"}, "shared_object_id": 6389291280}, "activation": "relu"}, "name": "block5_sepconv2_act", "inbound_nodes": [{"args": [{"class_name": "__keras_tensor__", "config": {"shape": [null, 14, 14, 728], "dtype": "float32", "keras_history": ["block5_sepconv1_bn", 0, 0]}}], "kwargs": {}}]}, {"class_name": "SeparableConv2D", "config": {"name": "block5_sepconv2", "trainable": false, "dtype": {"class_name": "DTypePolicy", "config": {"name": "float32"}, "shared_object_id": 6389291280}, "depth_multiplier": 1, "filters": 728, "kernel_size": [3, 3], "strides": [1, 1], "padding": "same", "data_format": "channels_last", "dilation_rate": [1, 1], "activation": "linear", "use_bias": false, "depthwise_initializer": {"class_name": "GlorotUniform", "config": {"seed": null}}, "pointwise_initializer": {"class_name": "GlorotUniform", "config": {"seed": null}}, "bias_initializer": {"class_name": "Zeros", "config": {}}, "depthwise_regularizer": null, "pointwise_regularizer": null, "bias_regularizer": null, "activity_regularizer": null, "depthwise_constraint": null, "pointwise_constraint": null, "bias_constraint": null}, "build_config": {"input_shape": [null, 14, 14, 728]}, "name": "block5_sepconv2", "inbound_nodes": [{"args": [{"class_name": "__keras_tensor__", "config": {"shape": [null, 14, 14, 728], "dtype": "float32", "keras_history": ["block5_sepconv2_act", 0, 0]}}], "kwargs": {}}]}, {"class_name": "BatchNormalization", "config": {"name": "block5_sepconv2_bn", "trainable": false, "dtype": {"class_name": "DTypePolicy", "config": {"name": "float32"}, "shared_object_id": 6389291280}, "axis": -1, "momentum": 0.99, "epsilon": 0.001, "center": true, "scale": true, "beta_initializer": {"class_name": "Zeros", "config": {}}, "gamma_initializer": {"class_name": "Ones", "config": {}}, "moving_mean_initializer": {"class_name": "Zeros", "config": {}}, "moving_variance_initializer": {"class_name": "Ones", "config": {}}, "beta_regularizer": null, "gamma_regularizer": null, "beta_constraint": null, "gamma_constraint": null, "synchronized": false}, "build_config": {"input_shape": [null, 14, 14, 728]}, "name": "block5_sepconv2_bn", "inbound_nodes": [{"args": [{"class_name": "__keras_tensor__", "config": {"shape": [null, 14, 14, 728], "dtype": "float32", "keras_history": ["block5_sepconv2", 0, 0]}}], "kwargs": {"mask": null}}]}, {"class_name": "Activation", "config": {"name": "block5_sepconv3_act", "trainable": false, "dtype": {"class_name": "DTypePolicy", "config": {"name": "float32"}, "shared_object_id": 6389291280}, "activation": "relu"}, "name": "block5_sepconv3_act", "inbound_nodes": [{"args": [{"class_name": "__keras_tensor__", "config": {"shape": [null, 14, 14, 728], "dtype": "float32", "keras_history": ["block5_sepconv2_bn", 0, 0]}}], "kwargs": {}}]}, {"class_name": "SeparableConv2D", "config": {"name": "block5_sepconv3", "trainable": false, "dtype": {"class_name": "DTypePolicy", "config": {"name": "float32"}, "shared_object_id": 6389291280}, "depth_multiplier": 1, "filters": 728, "kernel_size": [3, 3], "strides": [1, 1], "padding": "same", "data_format": "channels_last", "dilation_rate": [1, 1], "activation": "linear", "use_bias": false, "depthwise_initializer": {"class_name": "GlorotUniform", "config": {"seed": null}}, "pointwise_initializer": {"class_name": "GlorotUniform", "config": {"seed": null}}, "bias_initializer": {"class_name": "Zeros", "config": {}}, "depthwise_regularizer": null, "pointwise_regularizer": null, "bias_regularizer": null, "activity_regularizer": null, "depthwise_constraint": null, "pointwise_constraint": null, "bias_constraint": null}, "build_config": {"input_shape": [null, 14, 14, 728]}, "name": "block5_sepconv3", "inbound_nodes": [{"args": [{"class_name": "__keras_tensor__", "config": {"shape": [null, 14, 14, 728], "dtype": "float32", "keras_history": ["block5_sepconv3_act", 0, 0]}}], "kwargs": {}}]}, {"class_name": "BatchNormalization", "config": {"name": "block5_sepconv3_bn", "trainable": false, "dtype": {"class_name": "DTypePolicy", "config": {"name": "float32"}, "shared_object_id": 6389291280}, "axis": -1, "momentum": 0.99, "epsilon": 0.001, "center": true, "scale": true, "beta_initializer": {"class_name": "Zeros", "config": {}}, "gamma_initializer": {"class_name": "Ones", "config": {}}, "moving_mean_initializer": {"class_name": "Zeros", "config": {}}, "moving_variance_initializer": {"class_name": "Ones", "config": {}}, "beta_regularizer": null, "gamma_regularizer": null, "beta_constraint": null, "gamma_constraint": null, "synchronized": false}, "build_config": {"input_shape": [null, 14, 14, 728]}, "name": "block5_sepconv3_bn", "inbound_nodes": [{"args": [{"class_name": "__keras_tensor__", "config": {"shape": [null, 14, 14, 728], "dtype": "float32", "keras_history": ["block5_sepconv3", 0, 0]}}], "kwargs": {"mask": null}}]}, {"class_name": "Add", "config": {"name": "add_3", "trainable": false, "dtype": {"class_name": "DTypePolicy", "config": {"name": "float32"}, "shared_object_id": 6389291280}}, "build_config": {"input_shape": [[null, 14, 14, 728], [null, 14, 14, 728]]}, "name": "add_3", "inbound_nodes": [{"args": [[{"class_name": "__keras_tensor__", "config": {"shape": [null, 14, 14, 728], "dtype": "float32", "keras_history": ["block5_sepconv3_bn", 0, 0]}}, {"class_name": "__keras_tensor__", "config": {"shape": [null, 14, 14, 728], "dtype": "float32", "keras_history": ["add_2", 0, 0]}}]], "kwargs": {}}]}, {"class_name": "Activation", "config": {"name": "block6_sepconv1_act", "trainable": false, "dtype": {"class_name": "DTypePolicy", "config": {"name": "float32"}, "shared_object_id": 6389291280}, "activation": "relu"}, "name": "block6_sepconv1_act", "inbound_nodes": [{"args": [{"class_name": "__keras_tensor__", "config": {"shape": [null, 14, 14, 728], "dtype": "float32", "keras_history": ["add_3", 0, 0]}}], "kwargs": {}}]}, {"class_name": "SeparableConv2D", "config": {"name": "block6_sepconv1", "trainable": false, "dtype": {"class_name": "DTypePolicy", "config": {"name": "float32"}, "shared_object_id": 6389291280}, "depth_multiplier": 1, "filters": 728, "kernel_size": [3, 3], "strides": [1, 1], "padding": "same", "data_format": "channels_last", "dilation_rate": [1, 1], "activation": "linear", "use_bias": false, "depthwise_initializer": {"class_name": "GlorotUniform", "config": {"seed": null}}, "pointwise_initializer": {"class_name": "GlorotUniform", "config": {"seed": null}}, "bias_initializer": {"class_name": "Zeros", "config": {}}, "depthwise_regularizer": null, "pointwise_regularizer": null, "bias_regularizer": null, "activity_regularizer": null, "depthwise_constraint": null, "pointwise_constraint": null, "bias_constraint": null}, "build_config": {"input_shape": [null, 14, 14, 728]}, "name": "block6_sepconv1", "inbound_nodes": [{"args": [{"class_name": "__keras_tensor__", "config": {"shape": [null, 14, 14, 728], "dtype": "float32", "keras_history": ["block6_sepconv1_act", 0, 0]}}], "kwargs": {}}]}, {"class_name": "BatchNormalization", "config": {"name": "block6_sepconv1_bn", "trainable": false, "dtype": {"class_name": "DTypePolicy", "config": {"name": "float32"}, "shared_object_id": 6389291280}, "axis": -1, "momentum": 0.99, "epsilon": 0.001, "center": true, "scale": true, "beta_initializer": {"class_name": "Zeros", "config": {}}, "gamma_initializer": {"class_name": "Ones", "config": {}}, "moving_mean_initializer": {"class_name": "Zeros", "config": {}}, "moving_variance_initializer": {"class_name": "Ones", "config": {}}, "beta_regularizer": null, "gamma_regularizer": null, "beta_constraint": null, "gamma_constraint": null, "synchronized": false}, "build_config": {"input_shape": [null, 14, 14, 728]}, "name": "block6_sepconv1_bn", "inbound_nodes": [{"args": [{"class_name": "__keras_tensor__", "config": {"shape": [null, 14, 14, 728], "dtype": "float32", "keras_history": ["block6_sepconv1", 0, 0]}}], "kwargs": {"mask": null}}]}, {"class_name": "Activation", "config": {"name": "block6_sepconv2_act", "trainable": false, "dtype": {"class_name": "DTypePolicy", "config": {"name": "float32"}, "shared_object_id": 6389291280}, "activation": "relu"}, "name": "block6_sepconv2_act", "inbound_nodes": [{"args": [{"class_name": "__keras_tensor__", "config": {"shape": [null, 14, 14, 728], "dtype": "float32", "keras_history": ["block6_sepconv1_bn", 0, 0]}}], "kwargs": {}}]}, {"class_name": "SeparableConv2D", "config": {"name": "block6_sepconv2", "trainable": false, "dtype": {"class_name": "DTypePolicy", "config": {"name": "float32"}, "shared_object_id": 6389291280}, "depth_multiplier": 1, "filters": 728, "kernel_size": [3, 3], "strides": [1, 1], "padding": "same", "data_format": "channels_last", "dilation_rate": [1, 1], "activation": "linear", "use_bias": false, "depthwise_initializer": {"class_name": "GlorotUniform", "config": {"seed": null}}, "pointwise_initializer": {"class_name": "GlorotUniform", "config": {"seed": null}}, "bias_initializer": {"class_name": "Zeros", "config": {}}, "depthwise_regularizer": null, "pointwise_regularizer": null, "bias_regularizer": null, "activity_regularizer": null, "depthwise_constraint": null, "pointwise_constraint": null, "bias_constraint": null}, "build_config": {"input_shape": [null, 14, 14, 728]}, "name": "block6_sepconv2", "inbound_nodes": [{"args": [{"class_name": "__keras_tensor__", "config": {"shape": [null, 14, 14, 728], "dtype": "float32", "keras_history": ["block6_sepconv2_act", 0, 0]}}], "kwargs": {}}]}, {"class_name": "BatchNormalization", "config": {"name": "block6_sepconv2_bn", "trainable": false, "dtype": {"class_name": "DTypePolicy", "config": {"name": "float32"}, "shared_object_id": 6389291280}, "axis": -1, "momentum": 0.99, "epsilon": 0.001, "center": true, "scale": true, "beta_initializer": {"class_name": "Zeros", "config": {}}, "gamma_initializer": {"class_name": "Ones", "config": {}}, "moving_mean_initializer": {"class_name": "Zeros", "config": {}}, "moving_variance_initializer": {"class_name": "Ones", "config": {}}, "beta_regularizer": null, "gamma_regularizer": null, "beta_constraint": null, "gamma_constraint": null, "synchronized": false}, "build_config": {"input_shape": [null, 14, 14, 728]}, "name": "block6_sepconv2_bn", "inbound_nodes": [{"args": [{"class_name": "__keras_tensor__", "config": {"shape": [null, 14, 14, 728], "dtype": "float32", "keras_history": ["block6_sepconv2", 0, 0]}}], "kwargs": {"mask": null}}]}, {"class_name": "Activation", "config": {"name": "block6_sepconv3_act", "trainable": false, "dtype": {"class_name": "DTypePolicy", "config": {"name": "float32"}, "shared_object_id": 6389291280}, "activation": "relu"}, "name": "block6_sepconv3_act", "inbound_nodes": [{"args": [{"class_name": "__keras_tensor__", "config": {"shape": [null, 14, 14, 728], "dtype": "float32", "keras_history": ["block6_sepconv2_bn", 0, 0]}}], "kwargs": {}}]}, {"class_name": "SeparableConv2D", "config": {"name": "block6_sepconv3", "trainable": false, "dtype": {"class_name": "DTypePolicy", "config": {"name": "float32"}, "shared_object_id": 6389291280}, "depth_multiplier": 1, "filters": 728, "kernel_size": [3, 3], "strides": [1, 1], "padding": "same", "data_format": "channels_last", "dilation_rate": [1, 1], "activation": "linear", "use_bias": false, "depthwise_initializer": {"class_name": "GlorotUniform", "config": {"seed": null}}, "pointwise_initializer": {"class_name": "GlorotUniform", "config": {"seed": null}}, "bias_initializer": {"class_name": "Zeros", "config": {}}, "depthwise_regularizer": null, "pointwise_regularizer": null, "bias_regularizer": null, "activity_regularizer": null, "depthwise_constraint": null, "pointwise_constraint": null, "bias_constraint": null}, "build_config": {"input_shape": [null, 14, 14, 728]}, "name": "block6_sepconv3", "inbound_nodes": [{"args": [{"class_name": "__keras_tensor__", "config": {"shape": [null, 14, 14, 728], "dtype": "float32", "keras_history": ["block6_sepconv3_act", 0, 0]}}], "kwargs": {}}]}, {"class_name": "BatchNormalization", "config": {"name": "block6_sepconv3_bn", "trainable": false, "dtype": {"class_name": "DTypePolicy", "config": {"name": "float32"}, "shared_object_id": 6389291280}, "axis": -1, "momentum": 0.99, "epsilon": 0.001, "center": true, "scale": true, "beta_initializer": {"class_name": "Zeros", "config": {}}, "gamma_initializer": {"class_name": "Ones", "config": {}}, "moving_mean_initializer": {"class_name": "Zeros", "config": {}}, "moving_variance_initializer": {"class_name": "Ones", "config": {}}, "beta_regularizer": null, "gamma_regularizer": null, "beta_constraint": null, "gamma_constraint": null, "synchronized": false}, "build_config": {"input_shape": [null, 14, 14, 728]}, "name": "block6_sepconv3_bn", "inbound_nodes": [{"args": [{"class_name": "__keras_tensor__", "config": {"shape": [null, 14, 14, 728], "dtype": "float32", "keras_history": ["block6_sepconv3", 0, 0]}}], "kwargs": {"mask": null}}]}, {"class_name": "Add", "config": {"name": "add_4", "trainable": false, "dtype": {"class_name": "DTypePolicy", "config": {"name": "float32"}, "shared_object_id": 6389291280}}, "build_config": {"input_shape": [[null, 14, 14, 728], [null, 14, 14, 728]]}, "name": "add_4", "inbound_nodes": [{"args": [[{"class_name": "__keras_tensor__", "config": {"shape": [null, 14, 14, 728], "dtype": "float32", "keras_history": ["block6_sepconv3_bn", 0, 0]}}, {"class_name": "__keras_tensor__", "config": {"shape": [null, 14, 14, 728], "dtype": "float32", "keras_history": ["add_3", 0, 0]}}]], "kwargs": {}}]}, {"class_name": "Activation", "config": {"name": "block7_sepconv1_act", "trainable": false, "dtype": {"class_name": "DTypePolicy", "config": {"name": "float32"}, "shared_object_id": 6389291280}, "activation": "relu"}, "name": "block7_sepconv1_act", "inbound_nodes": [{"args": [{"class_name": "__keras_tensor__", "config": {"shape": [null, 14, 14, 728], "dtype": "float32", "keras_history": ["add_4", 0, 0]}}], "kwargs": {}}]}, {"class_name": "SeparableConv2D", "config": {"name": "block7_sepconv1", "trainable": false, "dtype": {"class_name": "DTypePolicy", "config": {"name": "float32"}, "shared_object_id": 6389291280}, "depth_multiplier": 1, "filters": 728, "kernel_size": [3, 3], "strides": [1, 1], "padding": "same", "data_format": "channels_last", "dilation_rate": [1, 1], "activation": "linear", "use_bias": false, "depthwise_initializer": {"class_name": "GlorotUniform", "config": {"seed": null}}, "pointwise_initializer": {"class_name": "GlorotUniform", "config": {"seed": null}}, "bias_initializer": {"class_name": "Zeros", "config": {}}, "depthwise_regularizer": null, "pointwise_regularizer": null, "bias_regularizer": null, "activity_regularizer": null, "depthwise_constraint": null, "pointwise_constraint": null, "bias_constraint": null}, "build_config": {"input_shape": [null, 14, 14, 728]}, "name": "block7_sepconv1", "inbound_nodes": [{"args": [{"class_name": "__keras_tensor__", "config": {"shape": [null, 14, 14, 728], "dtype": "float32", "keras_history": ["block7_sepconv1_act", 0, 0]}}], "kwargs": {}}]}, {"class_name": "BatchNormalization", "config": {"name": "block7_sepconv1_bn", "trainable": false, "dtype": {"class_name": "DTypePolicy", "config": {"name": "float32"}, "shared_object_id": 6389291280}, "axis": -1, "momentum": 0.99, "epsilon": 0.001, "center": true, "scale": true, "beta_initializer": {"class_name": "Zeros", "config": {}}, "gamma_initializer": {"class_name": "Ones", "config": {}}, "moving_mean_initializer": {"class_name": "Zeros", "config": {}}, "moving_variance_initializer": {"class_name": "Ones", "config": {}}, "beta_regularizer": null, "gamma_regularizer": null, "beta_constraint": null, "gamma_constraint": null, "synchronized": false}, "build_config": {"input_shape": [null, 14, 14, 728]}, "name": "block7_sepconv1_bn", "inbound_nodes": [{"args": [{"class_name": "__keras_tensor__", "config": {"shape": [null, 14, 14, 728], "dtype": "float32", "keras_history": ["block7_sepconv1", 0, 0]}}], "kwargs": {"mask": null}}]}, {"class_name": "Activation", "config": {"name": "block7_sepconv2_act", "trainable": false, "dtype": {"class_name": "DTypePolicy", "config": {"name": "float32"}, "shared_object_id": 6389291280}, "activation": "relu"}, "name": "block7_sepconv2_act", "inbound_nodes": [{"args": [{"class_name": "__keras_tensor__", "config": {"shape": [null, 14, 14, 728], "dtype": "float32", "keras_history": ["block7_sepconv1_bn", 0, 0]}}], "kwargs": {}}]}, {"class_name": "SeparableConv2D", "config": {"name": "block7_sepconv2", "trainable": false, "dtype": {"class_name": "DTypePolicy", "config": {"name": "float32"}, "shared_object_id": 6389291280}, "depth_multiplier": 1, "filters": 728, "kernel_size": [3, 3], "strides": [1, 1], "padding": "same", "data_format": "channels_last", "dilation_rate": [1, 1], "activation": "linear", "use_bias": false, "depthwise_initializer": {"class_name": "GlorotUniform", "config": {"seed": null}}, "pointwise_initializer": {"class_name": "GlorotUniform", "config": {"seed": null}}, "bias_initializer": {"class_name": "Zeros", "config": {}}, "depthwise_regularizer": null, "pointwise_regularizer": null, "bias_regularizer": null, "activity_regularizer": null, "depthwise_constraint": null, "pointwise_constraint": null, "bias_constraint": null}, "build_config": {"input_shape": [null, 14, 14, 728]}, "name": "block7_sepconv2", "inbound_nodes": [{"args": [{"class_name": "__keras_tensor__", "config": {"shape": [null, 14, 14, 728], "dtype": "float32", "keras_history": ["block7_sepconv2_act", 0, 0]}}], "kwargs": {}}]}, {"class_name": "BatchNormalization", "config": {"name": "block7_sepconv2_bn", "trainable": false, "dtype": {"class_name": "DTypePolicy", "config": {"name": "float32"}, "shared_object_id": 6389291280}, "axis": -1, "momentum": 0.99, "epsilon": 0.001, "center": true, "scale": true, "beta_initializer": {"class_name": "Zeros", "config": {}}, "gamma_initializer": {"class_name": "Ones", "config": {}}, "moving_mean_initializer": {"class_name": "Zeros", "config": {}}, "moving_variance_initializer": {"class_name": "Ones", "config": {}}, "beta_regularizer": null, "gamma_regularizer": null, "beta_constraint": null, "gamma_constraint": null, "synchronized": false}, "build_config": {"input_shape": [null, 14, 14, 728]}, "name": "block7_sepconv2_bn", "inbound_nodes": [{"args": [{"class_name": "__keras_tensor__", "config": {"shape": [null, 14, 14, 728], "dtype": "float32", "keras_history": ["block7_sepconv2", 0, 0]}}], "kwargs": {"mask": null}}]}, {"class_name": "Activation", "config": {"name": "block7_sepconv3_act", "trainable": false, "dtype": {"class_name": "DTypePolicy", "config": {"name": "float32"}, "shared_object_id": 6389291280}, "activation": "relu"}, "name": "block7_sepconv3_act", "inbound_nodes": [{"args": [{"class_name": "__keras_tensor__", "config": {"shape": [null, 14, 14, 728], "dtype": "float32", "keras_history": ["block7_sepconv2_bn", 0, 0]}}], "kwargs": {}}]}, {"class_name": "SeparableConv2D", "config": {"name": "block7_sepconv3", "trainable": false, "dtype": {"class_name": "DTypePolicy", "config": {"name": "float32"}, "shared_object_id": 6389291280}, "depth_multiplier": 1, "filters": 728, "kernel_size": [3, 3], "strides": [1, 1], "padding": "same", "data_format": "channels_last", "dilation_rate": [1, 1], "activation": "linear", "use_bias": false, "depthwise_initializer": {"class_name": "GlorotUniform", "config": {"seed": null}}, "pointwise_initializer": {"class_name": "GlorotUniform", "config": {"seed": null}}, "bias_initializer": {"class_name": "Zeros", "config": {}}, "depthwise_regularizer": null, "pointwise_regularizer": null, "bias_regularizer": null, "activity_regularizer": null, "depthwise_constraint": null, "pointwise_constraint": null, "bias_constraint": null}, "build_config": {"input_shape": [null, 14, 14, 728]}, "name": "block7_sepconv3", "inbound_nodes": [{"args": [{"class_name": "__keras_tensor__", "config": {"shape": [null, 14, 14, 728], "dtype": "float32", "keras_history": ["block7_sepconv3_act", 0, 0]}}], "kwargs": {}}]}, {"class_name": "BatchNormalization", "config": {"name": "block7_sepconv3_bn", "trainable": false, "dtype": {"class_name": "DTypePolicy", "config": {"name": "float32"}, "shared_object_id": 6389291280}, "axis": -1, "momentum": 0.99, "epsilon": 0.001, "center": true, "scale": true, "beta_initializer": {"class_name": "Zeros", "config": {}}, "gamma_initializer": {"class_name": "Ones", "config": {}}, "moving_mean_initializer": {"class_name": "Zeros", "config": {}}, "moving_variance_initializer": {"class_name": "Ones", "config": {}}, "beta_regularizer": null, "gamma_regularizer": null, "beta_constraint": null, "gamma_constraint": null, "synchronized": false}, "build_config": {"input_shape": [null, 14, 14, 728]}, "name": "block7_sepconv3_bn", "inbound_nodes": [{"args": [{"class_name": "__keras_tensor__", "config": {"shape": [null, 14, 14, 728], "dtype": "float32", "keras_history": ["block7_sepconv3", 0, 0]}}], "kwargs": {"mask": null}}]}, {"class_name": "Add", "config": {"name": "add_5", "trainable": false, "dtype": {"class_name": "DTypePolicy", "config": {"name": "float32"}, "shared_object_id": 6389291280}}, "build_config": {"input_shape": [[null, 14, 14, 728], [null, 14, 14, 728]]}, "name": "add_5", "inbound_nodes": [{"args": [[{"class_name": "__keras_tensor__", "config": {"shape": [null, 14, 14, 728], "dtype": "float32", "keras_history": ["block7_sepconv3_bn", 0, 0]}}, {"class_name": "__keras_tensor__", "config": {"shape": [null, 14, 14, 728], "dtype": "float32", "keras_history": ["add_4", 0, 0]}}]], "kwargs": {}}]}, {"class_name": "Activation", "config": {"name": "block8_sepconv1_act", "trainable": false, "dtype": {"class_name": "DTypePolicy", "config": {"name": "float32"}, "shared_object_id": 6389291280}, "activation": "relu"}, "name": "block8_sepconv1_act", "inbound_nodes": [{"args": [{"class_name": "__keras_tensor__", "config": {"shape": [null, 14, 14, 728], "dtype": "float32", "keras_history": ["add_5", 0, 0]}}], "kwargs": {}}]}, {"class_name": "SeparableConv2D", "config": {"name": "block8_sepconv1", "trainable": false, "dtype": {"class_name": "DTypePolicy", "config": {"name": "float32"}, "shared_object_id": 6389291280}, "depth_multiplier": 1, "filters": 728, "kernel_size": [3, 3], "strides": [1, 1], "padding": "same", "data_format": "channels_last", "dilation_rate": [1, 1], "activation": "linear", "use_bias": false, "depthwise_initializer": {"class_name": "GlorotUniform", "config": {"seed": null}}, "pointwise_initializer": {"class_name": "GlorotUniform", "config": {"seed": null}}, "bias_initializer": {"class_name": "Zeros", "config": {}}, "depthwise_regularizer": null, "pointwise_regularizer": null, "bias_regularizer": null, "activity_regularizer": null, "depthwise_constraint": null, "pointwise_constraint": null, "bias_constraint": null}, "build_config": {"input_shape": [null, 14, 14, 728]}, "name": "block8_sepconv1", "inbound_nodes": [{"args": [{"class_name": "__keras_tensor__", "config": {"shape": [null, 14, 14, 728], "dtype": "float32", "keras_history": ["block8_sepconv1_act", 0, 0]}}], "kwargs": {}}]}, {"class_name": "BatchNormalization", "config": {"name": "block8_sepconv1_bn", "trainable": false, "dtype": {"class_name": "DTypePolicy", "config": {"name": "float32"}, "shared_object_id": 6389291280}, "axis": -1, "momentum": 0.99, "epsilon": 0.001, "center": true, "scale": true, "beta_initializer": {"class_name": "Zeros", "config": {}}, "gamma_initializer": {"class_name": "Ones", "config": {}}, "moving_mean_initializer": {"class_name": "Zeros", "config": {}}, "moving_variance_initializer": {"class_name": "Ones", "config": {}}, "beta_regularizer": null, "gamma_regularizer": null, "beta_constraint": null, "gamma_constraint": null, "synchronized": false}, "build_config": {"input_shape": [null, 14, 14, 728]}, "name": "block8_sepconv1_bn", "inbound_nodes": [{"args": [{"class_name": "__keras_tensor__", "config": {"shape": [null, 14, 14, 728], "dtype": "float32", "keras_history": ["block8_sepconv1", 0, 0]}}], "kwargs": {"mask": null}}]}, {"class_name": "Activation", "config": {"name": "block8_sepconv2_act", "trainable": false, "dtype": {"class_name": "DTypePolicy", "config": {"name": "float32"}, "shared_object_id": 6389291280}, "activation": "relu"}, "name": "block8_sepconv2_act", "inbound_nodes": [{"args": [{"class_name": "__keras_tensor__", "config": {"shape": [null, 14, 14, 728], "dtype": "float32", "keras_history": ["block8_sepconv1_bn", 0, 0]}}], "kwargs": {}}]}, {"class_name": "SeparableConv2D", "config": {"name": "block8_sepconv2", "trainable": false, "dtype": {"class_name": "DTypePolicy", "config": {"name": "float32"}, "shared_object_id": 6389291280}, "depth_multiplier": 1, "filters": 728, "kernel_size": [3, 3], "strides": [1, 1], "padding": "same", "data_format": "channels_last", "dilation_rate": [1, 1], "activation": "linear", "use_bias": false, "depthwise_initializer": {"class_name": "GlorotUniform", "config": {"seed": null}}, "pointwise_initializer": {"class_name": "GlorotUniform", "config": {"seed": null}}, "bias_initializer": {"class_name": "Zeros", "config": {}}, "depthwise_regularizer": null, "pointwise_regularizer": null, "bias_regularizer": null, "activity_regularizer": null, "depthwise_constraint": null, "pointwise_constraint": null, "bias_constraint": null}, "build_config": {"input_shape": [null, 14, 14, 728]}, "name": "block8_sepconv2", "inbound_nodes": [{"args": [{"class_name": "__keras_tensor__", "config": {"shape": [null, 14, 14, 728], "dtype": "float32", "keras_history": ["block8_sepconv2_act", 0, 0]}}], "kwargs": {}}]}, {"class_name": "BatchNormalization", "config": {"name": "block8_sepconv2_bn", "trainable": false, "dtype": {"class_name": "DTypePolicy", "config": {"name": "float32"}, "shared_object_id": 6389291280}, "axis": -1, "momentum": 0.99, "epsilon": 0.001, "center": true, "scale": true, "beta_initializer": {"class_name": "Zeros", "config": {}}, "gamma_initializer": {"class_name": "Ones", "config": {}}, "moving_mean_initializer": {"class_name": "Zeros", "config": {}}, "moving_variance_initializer": {"class_name": "Ones", "config": {}}, "beta_regularizer": null, "gamma_regularizer": null, "beta_constraint": null, "gamma_constraint": null, "synchronized": false}, "build_config": {"input_shape": [null, 14, 14, 728]}, "name": "block8_sepconv2_bn", "inbound_nodes": [{"args": [{"class_name": "__keras_tensor__", "config": {"shape": [null, 14, 14, 728], "dtype": "float32", "keras_history": ["block8_sepconv2", 0, 0]}}], "kwargs": {"mask": null}}]}, {"class_name": "Activation", "config": {"name": "block8_sepconv3_act", "trainable": false, "dtype": {"class_name": "DTypePolicy", "config": {"name": "float32"}, "shared_object_id": 6389291280}, "activation": "relu"}, "name": "block8_sepconv3_act", "inbound_nodes": [{"args": [{"class_name": "__keras_tensor__", "config": {"shape": [null, 14, 14, 728], "dtype": "float32", "keras_history": ["block8_sepconv2_bn", 0, 0]}}], "kwargs": {}}]}, {"class_name": "SeparableConv2D", "config": {"name": "block8_sepconv3", "trainable": false, "dtype": {"class_name": "DTypePolicy", "config": {"name": "float32"}, "shared_object_id": 6389291280}, "depth_multiplier": 1, "filters": 728, "kernel_size": [3, 3], "strides": [1, 1], "padding": "same", "data_format": "channels_last", "dilation_rate": [1, 1], "activation": "linear", "use_bias": false, "depthwise_initializer": {"class_name": "GlorotUniform", "config": {"seed": null}}, "pointwise_initializer": {"class_name": "GlorotUniform", "config": {"seed": null}}, "bias_initializer": {"class_name": "Zeros", "config": {}}, "depthwise_regularizer": null, "pointwise_regularizer": null, "bias_regularizer": null, "activity_regularizer": null, "depthwise_constraint": null, "pointwise_constraint": null, "bias_constraint": null}, "build_config": {"input_shape": [null, 14, 14, 728]}, "name": "block8_sepconv3", "inbound_nodes": [{"args": [{"class_name": "__keras_tensor__", "config": {"shape": [null, 14, 14, 728], "dtype": "float32", "keras_history": ["block8_sepconv3_act", 0, 0]}}], "kwargs": {}}]}, {"class_name": "BatchNormalization", "config": {"name": "block8_sepconv3_bn", "trainable": false, "dtype": {"class_name": "DTypePolicy", "config": {"name": "float32"}, "shared_object_id": 6389291280}, "axis": -1, "momentum": 0.99, "epsilon": 0.001, "center": true, "scale": true, "beta_initializer": {"class_name": "Zeros", "config": {}}, "gamma_initializer": {"class_name": "Ones", "config": {}}, "moving_mean_initializer": {"class_name": "Zeros", "config": {}}, "moving_variance_initializer": {"class_name": "Ones", "config": {}}, "beta_regularizer": null, "gamma_regularizer": null, "beta_constraint": null, "gamma_constraint": null, "synchronized": false}, "build_config": {"input_shape": [null, 14, 14, 728]}, "name": "block8_sepconv3_bn", "inbound_nodes": [{"args": [{"class_name": "__keras_tensor__", "config": {"shape": [null, 14, 14, 728], "dtype": "float32", "keras_history": ["block8_sepconv3", 0, 0]}}], "kwargs": {"mask": null}}]}, {"class_name": "Add", "config": {"name": "add_6", "trainable": false, "dtype": {"class_name": "DTypePolicy", "config": {"name": "float32"}, "shared_object_id": 6389291280}}, "build_config": {"input_shape": [[null, 14, 14, 728], [null, 14, 14, 728]]}, "name": "add_6", "inbound_nodes": [{"args": [[{"class_name": "__keras_tensor__", "config": {"shape": [null, 14, 14, 728], "dtype": "float32", "keras_history": ["block8_sepconv3_bn", 0, 0]}}, {"class_name": "__keras_tensor__", "config": {"shape": [null, 14, 14, 728], "dtype": "float32", "keras_history": ["add_5", 0, 0]}}]], "kwargs": {}}]}, {"class_name": "Activation", "config": {"name": "block9_sepconv1_act", "trainable": false, "dtype": {"class_name": "DTypePolicy", "config": {"name": "float32"}, "shared_object_id": 6389291280}, "activation": "relu"}, "name": "block9_sepconv1_act", "inbound_nodes": [{"args": [{"class_name": "__keras_tensor__", "config": {"shape": [null, 14, 14, 728], "dtype": "float32", "keras_history": ["add_6", 0, 0]}}], "kwargs": {}}]}, {"class_name": "SeparableConv2D", "config": {"name": "block9_sepconv1", "trainable": false, "dtype": {"class_name": "DTypePolicy", "config": {"name": "float32"}, "shared_object_id": 6389291280}, "depth_multiplier": 1, "filters": 728, "kernel_size": [3, 3], "strides": [1, 1], "padding": "same", "data_format": "channels_last", "dilation_rate": [1, 1], "activation": "linear", "use_bias": false, "depthwise_initializer": {"class_name": "GlorotUniform", "config": {"seed": null}}, "pointwise_initializer": {"class_name": "GlorotUniform", "config": {"seed": null}}, "bias_initializer": {"class_name": "Zeros", "config": {}}, "depthwise_regularizer": null, "pointwise_regularizer": null, "bias_regularizer": null, "activity_regularizer": null, "depthwise_constraint": null, "pointwise_constraint": null, "bias_constraint": null}, "build_config": {"input_shape": [null, 14, 14, 728]}, "name": "block9_sepconv1", "inbound_nodes": [{"args": [{"class_name": "__keras_tensor__", "config": {"shape": [null, 14, 14, 728], "dtype": "float32", "keras_history": ["block9_sepconv1_act", 0, 0]}}], "kwargs": {}}]}, {"class_name": "BatchNormalization", "config": {"name": "block9_sepconv1_bn", "trainable": false, "dtype": {"class_name": "DTypePolicy", "config": {"name": "float32"}, "shared_object_id": 6389291280}, "axis": -1, "momentum": 0.99, "epsilon": 0.001, "center": true, "scale": true, "beta_initializer": {"class_name": "Zeros", "config": {}}, "gamma_initializer": {"class_name": "Ones", "config": {}}, "moving_mean_initializer": {"class_name": "Zeros", "config": {}}, "moving_variance_initializer": {"class_name": "Ones", "config": {}}, "beta_regularizer": null, "gamma_regularizer": null, "beta_constraint": null, "gamma_constraint": null, "synchronized": false}, "build_config": {"input_shape": [null, 14, 14, 728]}, "name": "block9_sepconv1_bn", "inbound_nodes": [{"args": [{"class_name": "__keras_tensor__", "config": {"shape": [null, 14, 14, 728], "dtype": "float32", "keras_history": ["block9_sepconv1", 0, 0]}}], "kwargs": {"mask": null}}]}, {"class_name": "Activation", "config": {"name": "block9_sepconv2_act", "trainable": false, "dtype": {"class_name": "DTypePolicy", "config": {"name": "float32"}, "shared_object_id": 6389291280}, "activation": "relu"}, "name": "block9_sepconv2_act", "inbound_nodes": [{"args": [{"class_name": "__keras_tensor__", "config": {"shape": [null, 14, 14, 728], "dtype": "float32", "keras_history": ["block9_sepconv1_bn", 0, 0]}}], "kwargs": {}}]}, {"class_name": "SeparableConv2D", "config": {"name": "block9_sepconv2", "trainable": false, "dtype": {"class_name": "DTypePolicy", "config": {"name": "float32"}, "shared_object_id": 6389291280}, "depth_multiplier": 1, "filters": 728, "kernel_size": [3, 3], "strides": [1, 1], "padding": "same", "data_format": "channels_last", "dilation_rate": [1, 1], "activation": "linear", "use_bias": false, "depthwise_initializer": {"class_name": "GlorotUniform", "config": {"seed": null}}, "pointwise_initializer": {"class_name": "GlorotUniform", "config": {"seed": null}}, "bias_initializer": {"class_name": "Zeros", "config": {}}, "depthwise_regularizer": null, "pointwise_regularizer": null, "bias_regularizer": null, "activity_regularizer": null, "depthwise_constraint": null, "pointwise_constraint": null, "bias_constraint": null}, "build_config": {"input_shape": [null, 14, 14, 728]}, "name": "block9_sepconv2", "inbound_nodes": [{"args": [{"class_name": "__keras_tensor__", "config": {"shape": [null, 14, 14, 728], "dtype": "float32", "keras_history": ["block9_sepconv2_act", 0, 0]}}], "kwargs": {}}]}, {"class_name": "BatchNormalization", "config": {"name": "block9_sepconv2_bn", "trainable": false, "dtype": {"class_name": "DTypePolicy", "config": {"name": "float32"}, "shared_object_id": 6389291280}, "axis": -1, "momentum": 0.99, "epsilon": 0.001, "center": true, "scale": true, "beta_initializer": {"class_name": "Zeros", "config": {}}, "gamma_initializer": {"class_name": "Ones", "config": {}}, "moving_mean_initializer": {"class_name": "Zeros", "config": {}}, "moving_variance_initializer": {"class_name": "Ones", "config": {}}, "beta_regularizer": null, "gamma_regularizer": null, "beta_constraint": null, "gamma_constraint": null, "synchronized": false}, "build_config": {"input_shape": [null, 14, 14, 728]}, "name": "block9_sepconv2_bn", "inbound_nodes": [{"args": [{"class_name": "__keras_tensor__", "config": {"shape": [null, 14, 14, 728], "dtype": "float32", "keras_history": ["block9_sepconv2", 0, 0]}}], "kwargs": {"mask": null}}]}, {"class_name": "Activation", "config": {"name": "block9_sepconv3_act", "trainable": false, "dtype": {"class_name": "DTypePolicy", "config": {"name": "float32"}, "shared_object_id": 6389291280}, "activation": "relu"}, "name": "block9_sepconv3_act", "inbound_nodes": [{"args": [{"class_name": "__keras_tensor__", "config": {"shape": [null, 14, 14, 728], "dtype": "float32", "keras_history": ["block9_sepconv2_bn", 0, 0]}}], "kwargs": {}}]}, {"class_name": "SeparableConv2D", "config": {"name": "block9_sepconv3", "trainable": false, "dtype": {"class_name": "DTypePolicy", "config": {"name": "float32"}, "shared_object_id": 6389291280}, "depth_multiplier": 1, "filters": 728, "kernel_size": [3, 3], "strides": [1, 1], "padding": "same", "data_format": "channels_last", "dilation_rate": [1, 1], "activation": "linear", "use_bias": false, "depthwise_initializer": {"class_name": "GlorotUniform", "config": {"seed": null}}, "pointwise_initializer": {"class_name": "GlorotUniform", "config": {"seed": null}}, "bias_initializer": {"class_name": "Zeros", "config": {}}, "depthwise_regularizer": null, "pointwise_regularizer": null, "bias_regularizer": null, "activity_regularizer": null, "depthwise_constraint": null, "pointwise_constraint": null, "bias_constraint": null}, "build_config": {"input_shape": [null, 14, 14, 728]}, "name": "block9_sepconv3", "inbound_nodes": [{"args": [{"class_name": "__keras_tensor__", "config": {"shape": [null, 14, 14, 728], "dtype": "float32", "keras_history": ["block9_sepconv3_act", 0, 0]}}], "kwargs": {}}]}, {"class_name": "BatchNormalization", "config": {"name": "block9_sepconv3_bn", "trainable": false, "dtype": {"class_name": "DTypePolicy", "config": {"name": "float32"}, "shared_object_id": 6389291280}, "axis": -1, "momentum": 0.99, "epsilon": 0.001, "center": true, "scale": true, "beta_initializer": {"class_name": "Zeros", "config": {}}, "gamma_initializer": {"class_name": "Ones", "config": {}}, "moving_mean_initializer": {"class_name": "Zeros", "config": {}}, "moving_variance_initializer": {"class_name": "Ones", "config": {}}, "beta_regularizer": null, "gamma_regularizer": null, "beta_constraint": null, "gamma_constraint": null, "synchronized": false}, "build_config": {"input_shape": [null, 14, 14, 728]}, "name": "block9_sepconv3_bn", "inbound_nodes": [{"args": [{"class_name": "__keras_tensor__", "config": {"shape": [null, 14, 14, 728], "dtype": "float32", "keras_history": ["block9_sepconv3", 0, 0]}}], "kwargs": {"mask": null}}]}, {"class_name": "Add", "config": {"name": "add_7", "trainable": false, "dtype": {"class_name": "DTypePolicy", "config": {"name": "float32"}, "shared_object_id": 6389291280}}, "build_config": {"input_shape": [[null, 14, 14, 728], [null, 14, 14, 728]]}, "name": "add_7", "inbound_nodes": [{"args": [[{"class_name": "__keras_tensor__", "config": {"shape": [null, 14, 14, 728], "dtype": "float32", "keras_history": ["block9_sepconv3_bn", 0, 0]}}, {"class_name": "__keras_tensor__", "config": {"shape": [null, 14, 14, 728], "dtype": "float32", "keras_history": ["add_6", 0, 0]}}]], "kwargs": {}}]}, {"class_name": "Activation", "config": {"name": "block10_sepconv1_act", "trainable": false, "dtype": {"class_name": "DTypePolicy", "config": {"name": "float32"}, "shared_object_id": 6389291280}, "activation": "relu"}, "name": "block10_sepconv1_act", "inbound_nodes": [{"args": [{"class_name": "__keras_tensor__", "config": {"shape": [null, 14, 14, 728], "dtype": "float32", "keras_history": ["add_7", 0, 0]}}], "kwargs": {}}]}, {"class_name": "SeparableConv2D", "config": {"name": "block10_sepconv1", "trainable": false, "dtype": {"class_name": "DTypePolicy", "config": {"name": "float32"}, "shared_object_id": 6389291280}, "depth_multiplier": 1, "filters": 728, "kernel_size": [3, 3], "strides": [1, 1], "padding": "same", "data_format": "channels_last", "dilation_rate": [1, 1], "activation": "linear", "use_bias": false, "depthwise_initializer": {"class_name": "GlorotUniform", "config": {"seed": null}}, "pointwise_initializer": {"class_name": "GlorotUniform", "config": {"seed": null}}, "bias_initializer": {"class_name": "Zeros", "config": {}}, "depthwise_regularizer": null, "pointwise_regularizer": null, "bias_regularizer": null, "activity_regularizer": null, "depthwise_constraint": null, "pointwise_constraint": null, "bias_constraint": null}, "build_config": {"input_shape": [null, 14, 14, 728]}, "name": "block10_sepconv1", "inbound_nodes": [{"args": [{"class_name": "__keras_tensor__", "config": {"shape": [null, 14, 14, 728], "dtype": "float32", "keras_history": ["block10_sepconv1_act", 0, 0]}}], "kwargs": {}}]}, {"class_name": "BatchNormalization", "config": {"name": "block10_sepconv1_bn", "trainable": false, "dtype": {"class_name": "DTypePolicy", "config": {"name": "float32"}, "shared_object_id": 6389291280}, "axis": -1, "momentum": 0.99, "epsilon": 0.001, "center": true, "scale": true, "beta_initializer": {"class_name": "Zeros", "config": {}}, "gamma_initializer": {"class_name": "Ones", "config": {}}, "moving_mean_initializer": {"class_name": "Zeros", "config": {}}, "moving_variance_initializer": {"class_name": "Ones", "config": {}}, "beta_regularizer": null, "gamma_regularizer": null, "beta_constraint": null, "gamma_constraint": null, "synchronized": false}, "build_config": {"input_shape": [null, 14, 14, 728]}, "name": "block10_sepconv1_bn", "inbound_nodes": [{"args": [{"class_name": "__keras_tensor__", "config": {"shape": [null, 14, 14, 728], "dtype": "float32", "keras_history": ["block10_sepconv1", 0, 0]}}], "kwargs": {"mask": null}}]}, {"class_name": "Activation", "config": {"name": "block10_sepconv2_act", "trainable": false, "dtype": {"class_name": "DTypePolicy", "config": {"name": "float32"}, "shared_object_id": 6389291280}, "activation": "relu"}, "name": "block10_sepconv2_act", "inbound_nodes": [{"args": [{"class_name": "__keras_tensor__", "config": {"shape": [null, 14, 14, 728], "dtype": "float32", "keras_history": ["block10_sepconv1_bn", 0, 0]}}], "kwargs": {}}]}, {"class_name": "SeparableConv2D", "config": {"name": "block10_sepconv2", "trainable": false, "dtype": {"class_name": "DTypePolicy", "config": {"name": "float32"}, "shared_object_id": 6389291280}, "depth_multiplier": 1, "filters": 728, "kernel_size": [3, 3], "strides": [1, 1], "padding": "same", "data_format": "channels_last", "dilation_rate": [1, 1], "activation": "linear", "use_bias": false, "depthwise_initializer": {"class_name": "GlorotUniform", "config": {"seed": null}}, "pointwise_initializer": {"class_name": "GlorotUniform", "config": {"seed": null}}, "bias_initializer": {"class_name": "Zeros", "config": {}}, "depthwise_regularizer": null, "pointwise_regularizer": null, "bias_regularizer": null, "activity_regularizer": null, "depthwise_constraint": null, "pointwise_constraint": null, "bias_constraint": null}, "build_config": {"input_shape": [null, 14, 14, 728]}, "name": "block10_sepconv2", "inbound_nodes": [{"args": [{"class_name": "__keras_tensor__", "config": {"shape": [null, 14, 14, 728], "dtype": "float32", "keras_history": ["block10_sepconv2_act", 0, 0]}}], "kwargs": {}}]}, {"class_name": "BatchNormalization", "config": {"name": "block10_sepconv2_bn", "trainable": false, "dtype": {"class_name": "DTypePolicy", "config": {"name": "float32"}, "shared_object_id": 6389291280}, "axis": -1, "momentum": 0.99, "epsilon": 0.001, "center": true, "scale": true, "beta_initializer": {"class_name": "Zeros", "config": {}}, "gamma_initializer": {"class_name": "Ones", "config": {}}, "moving_mean_initializer": {"class_name": "Zeros", "config": {}}, "moving_variance_initializer": {"class_name": "Ones", "config": {}}, "beta_regularizer": null, "gamma_regularizer": null, "beta_constraint": null, "gamma_constraint": null, "synchronized": false}, "build_config": {"input_shape": [null, 14, 14, 728]}, "name": "block10_sepconv2_bn", "inbound_nodes": [{"args": [{"class_name": "__keras_tensor__", "config": {"shape": [null, 14, 14, 728], "dtype": "float32", "keras_history": ["block10_sepconv2", 0, 0]}}], "kwargs": {"mask": null}}]}, {"class_name": "Activation", "config": {"name": "block10_sepconv3_act", "trainable": true, "dtype": {"class_name": "DTypePolicy", "config": {"name": "float32"}, "shared_object_id": 6389291280}, "activation": "relu"}, "name": "block10_sepconv3_act", "inbound_nodes": [{"args": [{"class_name": "__keras_tensor__", "config": {"shape": [null, 14, 14, 728], "dtype": "float32", "keras_history": ["block10_sepconv2_bn", 0, 0]}}], "kwargs": {}}]}, {"class_name": "SeparableConv2D", "config": {"name": "block10_sepconv3", "trainable": true, "dtype": {"class_name": "DTypePolicy", "config": {"name": "float32"}, "shared_object_id": 6389291280}, "depth_multiplier": 1, "filters": 728, "kernel_size": [3, 3], "strides": [1, 1], "padding": "same", "data_format": "channels_last", "dilation_rate": [1, 1], "activation": "linear", "use_bias": false, "depthwise_initializer": {"class_name": "GlorotUniform", "config": {"seed": null}}, "pointwise_initializer": {"class_name": "GlorotUniform", "config": {"seed": null}}, "bias_initializer": {"class_name": "Zeros", "config": {}}, "depthwise_regularizer": null, "pointwise_regularizer": null, "bias_regularizer": null, "activity_regularizer": null, "depthwise_constraint": null, "pointwise_constraint": null, "bias_constraint": null}, "build_config": {"input_shape": [null, 14, 14, 728]}, "name": "block10_sepconv3", "inbound_nodes": [{"args": [{"class_name": "__keras_tensor__", "config": {"shape": [null, 14, 14, 728], "dtype": "float32", "keras_history": ["block10_sepconv3_act", 0, 0]}}], "kwargs": {}}]}, {"class_name": "BatchNormalization", "config": {"name": "block10_sepconv3_bn", "trainable": true, "dtype": {"class_name": "DTypePolicy", "config": {"name": "float32"}, "shared_object_id": 6389291280}, "axis": -1, "momentum": 0.99, "epsilon": 0.001, "center": true, "scale": true, "beta_initializer": {"class_name": "Zeros", "config": {}}, "gamma_initializer": {"class_name": "Ones", "config": {}}, "moving_mean_initializer": {"class_name": "Zeros", "config": {}}, "moving_variance_initializer": {"class_name": "Ones", "config": {}}, "beta_regularizer": null, "gamma_regularizer": null, "beta_constraint": null, "gamma_constraint": null, "synchronized": false}, "build_config": {"input_shape": [null, 14, 14, 728]}, "name": "block10_sepconv3_bn", "inbound_nodes": [{"args": [{"class_name": "__keras_tensor__", "config": {"shape": [null, 14, 14, 728], "dtype": "float32", "keras_history": ["block10_sepconv3", 0, 0]}}], "kwargs": {"mask": null}}]}, {"class_name": "Add", "config": {"name": "add_8", "trainable": true, "dtype": {"class_name": "DTypePolicy", "config": {"name": "float32"}, "shared_object_id": 6389291280}}, "build_config": {"input_shape": [[null, 14, 14, 728], [null, 14, 14, 728]]}, "name": "add_8", "inbound_nodes": [{"args": [[{"class_name": "__keras_tensor__", "config": {"shape": [null, 14, 14, 728], "dtype": "float32", "keras_history": ["block10_sepconv3_bn", 0, 0]}}, {"class_name": "__keras_tensor__", "config": {"shape": [null, 14, 14, 728], "dtype": "float32", "keras_history": ["add_7", 0, 0]}}]], "kwargs": {}}]}, {"class_name": "Activation", "config": {"name": "block11_sepconv1_act", "trainable": true, "dtype": {"class_name": "DTypePolicy", "config": {"name": "float32"}, "shared_object_id": 6389291280}, "activation": "relu"}, "name": "block11_sepconv1_act", "inbound_nodes": [{"args": [{"class_name": "__keras_tensor__", "config": {"shape": [null, 14, 14, 728], "dtype": "float32", "keras_history": ["add_8", 0, 0]}}], "kwargs": {}}]}, {"class_name": "SeparableConv2D", "config": {"name": "block11_sepconv1", "trainable": true, "dtype": {"class_name": "DTypePolicy", "config": {"name": "float32"}, "shared_object_id": 6389291280}, "depth_multiplier": 1, "filters": 728, "kernel_size": [3, 3], "strides": [1, 1], "padding": "same", "data_format": "channels_last", "dilation_rate": [1, 1], "activation": "linear", "use_bias": false, "depthwise_initializer": {"class_name": "GlorotUniform", "config": {"seed": null}}, "pointwise_initializer": {"class_name": "GlorotUniform", "config": {"seed": null}}, "bias_initializer": {"class_name": "Zeros", "config": {}}, "depthwise_regularizer": null, "pointwise_regularizer": null, "bias_regularizer": null, "activity_regularizer": null, "depthwise_constraint": null, "pointwise_constraint": null, "bias_constraint": null}, "build_config": {"input_shape": [null, 14, 14, 728]}, "name": "block11_sepconv1", "inbound_nodes": [{"args": [{"class_name": "__keras_tensor__", "config": {"shape": [null, 14, 14, 728], "dtype": "float32", "keras_history": ["block11_sepconv1_act", 0, 0]}}], "kwargs": {}}]}, {"class_name": "BatchNormalization", "config": {"name": "block11_sepconv1_bn", "trainable": true, "dtype": {"class_name": "DTypePolicy", "config": {"name": "float32"}, "shared_object_id": 6389291280}, "axis": -1, "momentum": 0.99, "epsilon": 0.001, "center": true, "scale": true, "beta_initializer": {"class_name": "Zeros", "config": {}}, "gamma_initializer": {"class_name": "Ones", "config": {}}, "moving_mean_initializer": {"class_name": "Zeros", "config": {}}, "moving_variance_initializer": {"class_name": "Ones", "config": {}}, "beta_regularizer": null, "gamma_regularizer": null, "beta_constraint": null, "gamma_constraint": null, "synchronized": false}, "build_config": {"input_shape": [null, 14, 14, 728]}, "name": "block11_sepconv1_bn", "inbound_nodes": [{"args": [{"class_name": "__keras_tensor__", "config": {"shape": [null, 14, 14, 728], "dtype": "float32", "keras_history": ["block11_sepconv1", 0, 0]}}], "kwargs": {"mask": null}}]}, {"class_name": "Activation", "config": {"name": "block11_sepconv2_act", "trainable": true, "dtype": {"class_name": "DTypePolicy", "config": {"name": "float32"}, "shared_object_id": 6389291280}, "activation": "relu"}, "name": "block11_sepconv2_act", "inbound_nodes": [{"args": [{"class_name": "__keras_tensor__", "config": {"shape": [null, 14, 14, 728], "dtype": "float32", "keras_history": ["block11_sepconv1_bn", 0, 0]}}], "kwargs": {}}]}, {"class_name": "SeparableConv2D", "config": {"name": "block11_sepconv2", "trainable": true, "dtype": {"class_name": "DTypePolicy", "config": {"name": "float32"}, "shared_object_id": 6389291280}, "depth_multiplier": 1, "filters": 728, "kernel_size": [3, 3], "strides": [1, 1], "padding": "same", "data_format": "channels_last", "dilation_rate": [1, 1], "activation": "linear", "use_bias": false, "depthwise_initializer": {"class_name": "GlorotUniform", "config": {"seed": null}}, "pointwise_initializer": {"class_name": "GlorotUniform", "config": {"seed": null}}, "bias_initializer": {"class_name": "Zeros", "config": {}}, "depthwise_regularizer": null, "pointwise_regularizer": null, "bias_regularizer": null, "activity_regularizer": null, "depthwise_constraint": null, "pointwise_constraint": null, "bias_constraint": null}, "build_config": {"input_shape": [null, 14, 14, 728]}, "name": "block11_sepconv2", "inbound_nodes": [{"args": [{"class_name": "__keras_tensor__", "config": {"shape": [null, 14, 14, 728], "dtype": "float32", "keras_history": ["block11_sepconv2_act", 0, 0]}}], "kwargs": {}}]}, {"class_name": "BatchNormalization", "config": {"name": "block11_sepconv2_bn", "trainable": true, "dtype": {"class_name": "DTypePolicy", "config": {"name": "float32"}, "shared_object_id": 6389291280}, "axis": -1, "momentum": 0.99, "epsilon": 0.001, "center": true, "scale": true, "beta_initializer": {"class_name": "Zeros", "config": {}}, "gamma_initializer": {"class_name": "Ones", "config": {}}, "moving_mean_initializer": {"class_name": "Zeros", "config": {}}, "moving_variance_initializer": {"class_name": "Ones", "config": {}}, "beta_regularizer": null, "gamma_regularizer": null, "beta_constraint": null, "gamma_constraint": null, "synchronized": false}, "build_config": {"input_shape": [null, 14, 14, 728]}, "name": "block11_sepconv2_bn", "inbound_nodes": [{"args": [{"class_name": "__keras_tensor__", "config": {"shape": [null, 14, 14, 728], "dtype": "float32", "keras_history": ["block11_sepconv2", 0, 0]}}], "kwargs": {"mask": null}}]}, {"class_name": "Activation", "config": {"name": "block11_sepconv3_act", "trainable": true, "dtype": {"class_name": "DTypePolicy", "config": {"name": "float32"}, "shared_object_id": 6389291280}, "activation": "relu"}, "name": "block11_sepconv3_act", "inbound_nodes": [{"args": [{"class_name": "__keras_tensor__", "config": {"shape": [null, 14, 14, 728], "dtype": "float32", "keras_history": ["block11_sepconv2_bn", 0, 0]}}], "kwargs": {}}]}, {"class_name": "SeparableConv2D", "config": {"name": "block11_sepconv3", "trainable": true, "dtype": {"class_name": "DTypePolicy", "config": {"name": "float32"}, "shared_object_id": 6389291280}, "depth_multiplier": 1, "filters": 728, "kernel_size": [3, 3], "strides": [1, 1], "padding": "same", "data_format": "channels_last", "dilation_rate": [1, 1], "activation": "linear", "use_bias": false, "depthwise_initializer": {"class_name": "GlorotUniform", "config": {"seed": null}}, "pointwise_initializer": {"class_name": "GlorotUniform", "config": {"seed": null}}, "bias_initializer": {"class_name": "Zeros", "config": {}}, "depthwise_regularizer": null, "pointwise_regularizer": null, "bias_regularizer": null, "activity_regularizer": null, "depthwise_constraint": null, "pointwise_constraint": null, "bias_constraint": null}, "build_config": {"input_shape": [null, 14, 14, 728]}, "name": "block11_sepconv3", "inbound_nodes": [{"args": [{"class_name": "__keras_tensor__", "config": {"shape": [null, 14, 14, 728], "dtype": "float32", "keras_history": ["block11_sepconv3_act", 0, 0]}}], "kwargs": {}}]}, {"class_name": "BatchNormalization", "config": {"name": "block11_sepconv3_bn", "trainable": true, "dtype": {"class_name": "DTypePolicy", "config": {"name": "float32"}, "shared_object_id": 6389291280}, "axis": -1, "momentum": 0.99, "epsilon": 0.001, "center": true, "scale": true, "beta_initializer": {"class_name": "Zeros", "config": {}}, "gamma_initializer": {"class_name": "Ones", "config": {}}, "moving_mean_initializer": {"class_name": "Zeros", "config": {}}, "moving_variance_initializer": {"class_name": "Ones", "config": {}}, "beta_regularizer": null, "gamma_regularizer": null, "beta_constraint": null, "gamma_constraint": null, "synchronized": false}, "build_config": {"input_shape": [null, 14, 14, 728]}, "name": "block11_sepconv3_bn", "inbound_nodes": [{"args": [{"class_name": "__keras_tensor__", "config": {"shape": [null, 14, 14, 728], "dtype": "float32", "keras_history": ["block11_sepconv3", 0, 0]}}], "kwargs": {"mask": null}}]}, {"class_name": "Add", "config": {"name": "add_9", "trainable": true, "dtype": {"class_name": "DTypePolicy", "config": {"name": "float32"}, "shared_object_id": 6389291280}}, "build_config": {"input_shape": [[null, 14, 14, 728], [null, 14, 14, 728]]}, "name": "add_9", "inbound_nodes": [{"args": [[{"class_name": "__keras_tensor__", "config": {"shape": [null, 14, 14, 728], "dtype": "float32", "keras_history": ["block11_sepconv3_bn", 0, 0]}}, {"class_name": "__keras_tensor__", "config": {"shape": [null, 14, 14, 728], "dtype": "float32", "keras_history": ["add_8", 0, 0]}}]], "kwargs": {}}]}, {"class_name": "Activation", "config": {"name": "block12_sepconv1_act", "trainable": true, "dtype": {"class_name": "DTypePolicy", "config": {"name": "float32"}, "shared_object_id": 6389291280}, "activation": "relu"}, "name": "block12_sepconv1_act", "inbound_nodes": [{"args": [{"class_name": "__keras_tensor__", "config": {"shape": [null, 14, 14, 728], "dtype": "float32", "keras_history": ["add_9", 0, 0]}}], "kwargs": {}}]}, {"class_name": "SeparableConv2D", "config": {"name": "block12_sepconv1", "trainable": true, "dtype": {"class_name": "DTypePolicy", "config": {"name": "float32"}, "shared_object_id": 6389291280}, "depth_multiplier": 1, "filters": 728, "kernel_size": [3, 3], "strides": [1, 1], "padding": "same", "data_format": "channels_last", "dilation_rate": [1, 1], "activation": "linear", "use_bias": false, "depthwise_initializer": {"class_name": "GlorotUniform", "config": {"seed": null}}, "pointwise_initializer": {"class_name": "GlorotUniform", "config": {"seed": null}}, "bias_initializer": {"class_name": "Zeros", "config": {}}, "depthwise_regularizer": null, "pointwise_regularizer": null, "bias_regularizer": null, "activity_regularizer": null, "depthwise_constraint": null, "pointwise_constraint": null, "bias_constraint": null}, "build_config": {"input_shape": [null, 14, 14, 728]}, "name": "block12_sepconv1", "inbound_nodes": [{"args": [{"class_name": "__keras_tensor__", "config": {"shape": [null, 14, 14, 728], "dtype": "float32", "keras_history": ["block12_sepconv1_act", 0, 0]}}], "kwargs": {}}]}, {"class_name": "BatchNormalization", "config": {"name": "block12_sepconv1_bn", "trainable": true, "dtype": {"class_name": "DTypePolicy", "config": {"name": "float32"}, "shared_object_id": 6389291280}, "axis": -1, "momentum": 0.99, "epsilon": 0.001, "center": true, "scale": true, "beta_initializer": {"class_name": "Zeros", "config": {}}, "gamma_initializer": {"class_name": "Ones", "config": {}}, "moving_mean_initializer": {"class_name": "Zeros", "config": {}}, "moving_variance_initializer": {"class_name": "Ones", "config": {}}, "beta_regularizer": null, "gamma_regularizer": null, "beta_constraint": null, "gamma_constraint": null, "synchronized": false}, "build_config": {"input_shape": [null, 14, 14, 728]}, "name": "block12_sepconv1_bn", "inbound_nodes": [{"args": [{"class_name": "__keras_tensor__", "config": {"shape": [null, 14, 14, 728], "dtype": "float32", "keras_history": ["block12_sepconv1", 0, 0]}}], "kwargs": {"mask": null}}]}, {"class_name": "Activation", "config": {"name": "block12_sepconv2_act", "trainable": true, "dtype": {"class_name": "DTypePolicy", "config": {"name": "float32"}, "shared_object_id": 6389291280}, "activation": "relu"}, "name": "block12_sepconv2_act", "inbound_nodes": [{"args": [{"class_name": "__keras_tensor__", "config": {"shape": [null, 14, 14, 728], "dtype": "float32", "keras_history": ["block12_sepconv1_bn", 0, 0]}}], "kwargs": {}}]}, {"class_name": "SeparableConv2D", "config": {"name": "block12_sepconv2", "trainable": true, "dtype": {"class_name": "DTypePolicy", "config": {"name": "float32"}, "shared_object_id": 6389291280}, "depth_multiplier": 1, "filters": 728, "kernel_size": [3, 3], "strides": [1, 1], "padding": "same", "data_format": "channels_last", "dilation_rate": [1, 1], "activation": "linear", "use_bias": false, "depthwise_initializer": {"class_name": "GlorotUniform", "config": {"seed": null}}, "pointwise_initializer": {"class_name": "GlorotUniform", "config": {"seed": null}}, "bias_initializer": {"class_name": "Zeros", "config": {}}, "depthwise_regularizer": null, "pointwise_regularizer": null, "bias_regularizer": null, "activity_regularizer": null, "depthwise_constraint": null, "pointwise_constraint": null, "bias_constraint": null}, "build_config": {"input_shape": [null, 14, 14, 728]}, "name": "block12_sepconv2", "inbound_nodes": [{"args": [{"class_name": "__keras_tensor__", "config": {"shape": [null, 14, 14, 728], "dtype": "float32", "keras_history": ["block12_sepconv2_act", 0, 0]}}], "kwargs": {}}]}, {"class_name": "BatchNormalization", "config": {"name": "block12_sepconv2_bn", "trainable": true, "dtype": {"class_name": "DTypePolicy", "config": {"name": "float32"}, "shared_object_id": 6389291280}, "axis": -1, "momentum": 0.99, "epsilon": 0.001, "center": true, "scale": true, "beta_initializer": {"class_name": "Zeros", "config": {}}, "gamma_initializer": {"class_name": "Ones", "config": {}}, "moving_mean_initializer": {"class_name": "Zeros", "config": {}}, "moving_variance_initializer": {"class_name": "Ones", "config": {}}, "beta_regularizer": null, "gamma_regularizer": null, "beta_constraint": null, "gamma_constraint": null, "synchronized": false}, "build_config": {"input_shape": [null, 14, 14, 728]}, "name": "block12_sepconv2_bn", "inbound_nodes": [{"args": [{"class_name": "__keras_tensor__", "config": {"shape": [null, 14, 14, 728], "dtype": "float32", "keras_history": ["block12_sepconv2", 0, 0]}}], "kwargs": {"mask": null}}]}, {"class_name": "Activation", "config": {"name": "block12_sepconv3_act", "trainable": true, "dtype": {"class_name": "DTypePolicy", "config": {"name": "float32"}, "shared_object_id": 6389291280}, "activation": "relu"}, "name": "block12_sepconv3_act", "inbound_nodes": [{"args": [{"class_name": "__keras_tensor__", "config": {"shape": [null, 14, 14, 728], "dtype": "float32", "keras_history": ["block12_sepconv2_bn", 0, 0]}}], "kwargs": {}}]}, {"class_name": "SeparableConv2D", "config": {"name": "block12_sepconv3", "trainable": true, "dtype": {"class_name": "DTypePolicy", "config": {"name": "float32"}, "shared_object_id": 6389291280}, "depth_multiplier": 1, "filters": 728, "kernel_size": [3, 3], "strides": [1, 1], "padding": "same", "data_format": "channels_last", "dilation_rate": [1, 1], "activation": "linear", "use_bias": false, "depthwise_initializer": {"class_name": "GlorotUniform", "config": {"seed": null}}, "pointwise_initializer": {"class_name": "GlorotUniform", "config": {"seed": null}}, "bias_initializer": {"class_name": "Zeros", "config": {}}, "depthwise_regularizer": null, "pointwise_regularizer": null, "bias_regularizer": null, "activity_regularizer": null, "depthwise_constraint": null, "pointwise_constraint": null, "bias_constraint": null}, "build_config": {"input_shape": [null, 14, 14, 728]}, "name": "block12_sepconv3", "inbound_nodes": [{"args": [{"class_name": "__keras_tensor__", "config": {"shape": [null, 14, 14, 728], "dtype": "float32", "keras_history": ["block12_sepconv3_act", 0, 0]}}], "kwargs": {}}]}, {"class_name": "BatchNormalization", "config": {"name": "block12_sepconv3_bn", "trainable": true, "dtype": {"class_name": "DTypePolicy", "config": {"name": "float32"}, "shared_object_id": 6389291280}, "axis": -1, "momentum": 0.99, "epsilon": 0.001, "center": true, "scale": true, "beta_initializer": {"class_name": "Zeros", "config": {}}, "gamma_initializer": {"class_name": "Ones", "config": {}}, "moving_mean_initializer": {"class_name": "Zeros", "config": {}}, "moving_variance_initializer": {"class_name": "Ones", "config": {}}, "beta_regularizer": null, "gamma_regularizer": null, "beta_constraint": null, "gamma_constraint": null, "synchronized": false}, "build_config": {"input_shape": [null, 14, 14, 728]}, "name": "block12_sepconv3_bn", "inbound_nodes": [{"args": [{"class_name": "__keras_tensor__", "config": {"shape": [null, 14, 14, 728], "dtype": "float32", "keras_history": ["block12_sepconv3", 0, 0]}}], "kwargs": {"mask": null}}]}, {"class_name": "Add", "config": {"name": "add_10", "trainable": true, "dtype": {"class_name": "DTypePolicy", "config": {"name": "float32"}, "shared_object_id": 6389291280}}, "build_config": {"input_shape": [[null, 14, 14, 728], [null, 14, 14, 728]]}, "name": "add_10", "inbound_nodes": [{"args": [[{"class_name": "__keras_tensor__", "config": {"shape": [null, 14, 14, 728], "dtype": "float32", "keras_history": ["block12_sepconv3_bn", 0, 0]}}, {"class_name": "__keras_tensor__", "config": {"shape": [null, 14, 14, 728], "dtype": "float32", "keras_history": ["add_9", 0, 0]}}]], "kwargs": {}}]}, {"class_name": "Activation", "config": {"name": "block13_sepconv1_act", "trainable": true, "dtype": {"class_name": "DTypePolicy", "config": {"name": "float32"}, "shared_object_id": 6389291280}, "activation": "relu"}, "name": "block13_sepconv1_act", "inbound_nodes": [{"args": [{"class_name": "__keras_tensor__", "config": {"shape": [null, 14, 14, 728], "dtype": "float32", "keras_history": ["add_10", 0, 0]}}], "kwargs": {}}]}, {"class_name": "SeparableConv2D", "config": {"name": "block13_sepconv1", "trainable": true, "dtype": {"class_name": "DTypePolicy", "config": {"name": "float32"}, "shared_object_id": 6389291280}, "depth_multiplier": 1, "filters": 728, "kernel_size": [3, 3], "strides": [1, 1], "padding": "same", "data_format": "channels_last", "dilation_rate": [1, 1], "activation": "linear", "use_bias": false, "depthwise_initializer": {"class_name": "GlorotUniform", "config": {"seed": null}}, "pointwise_initializer": {"class_name": "GlorotUniform", "config": {"seed": null}}, "bias_initializer": {"class_name": "Zeros", "config": {}}, "depthwise_regularizer": null, "pointwise_regularizer": null, "bias_regularizer": null, "activity_regularizer": null, "depthwise_constraint": null, "pointwise_constraint": null, "bias_constraint": null}, "build_config": {"input_shape": [null, 14, 14, 728]}, "name": "block13_sepconv1", "inbound_nodes": [{"args": [{"class_name": "__keras_tensor__", "config": {"shape": [null, 14, 14, 728], "dtype": "float32", "keras_history": ["block13_sepconv1_act", 0, 0]}}], "kwargs": {}}]}, {"class_name": "BatchNormalization", "config": {"name": "block13_sepconv1_bn", "trainable": true, "dtype": {"class_name": "DTypePolicy", "config": {"name": "float32"}, "shared_object_id": 6389291280}, "axis": -1, "momentum": 0.99, "epsilon": 0.001, "center": true, "scale": true, "beta_initializer": {"class_name": "Zeros", "config": {}}, "gamma_initializer": {"class_name": "Ones", "config": {}}, "moving_mean_initializer": {"class_name": "Zeros", "config": {}}, "moving_variance_initializer": {"class_name": "Ones", "config": {}}, "beta_regularizer": null, "gamma_regularizer": null, "beta_constraint": null, "gamma_constraint": null, "synchronized": false}, "build_config": {"input_shape": [null, 14, 14, 728]}, "name": "block13_sepconv1_bn", "inbound_nodes": [{"args": [{"class_name": "__keras_tensor__", "config": {"shape": [null, 14, 14, 728], "dtype": "float32", "keras_history": ["block13_sepconv1", 0, 0]}}], "kwargs": {"mask": null}}]}, {"class_name": "Activation", "config": {"name": "block13_sepconv2_act", "trainable": true, "dtype": {"class_name": "DTypePolicy", "config": {"name": "float32"}, "shared_object_id": 6389291280}, "activation": "relu"}, "name": "block13_sepconv2_act", "inbound_nodes": [{"args": [{"class_name": "__keras_tensor__", "config": {"shape": [null, 14, 14, 728], "dtype": "float32", "keras_history": ["block13_sepconv1_bn", 0, 0]}}], "kwargs": {}}]}, {"class_name": "SeparableConv2D", "config": {"name": "block13_sepconv2", "trainable": true, "dtype": {"class_name": "DTypePolicy", "config": {"name": "float32"}, "shared_object_id": 6389291280}, "depth_multiplier": 1, "filters": 1024, "kernel_size": [3, 3], "strides": [1, 1], "padding": "same", "data_format": "channels_last", "dilation_rate": [1, 1], "activation": "linear", "use_bias": false, "depthwise_initializer": {"class_name": "GlorotUniform", "config": {"seed": null}}, "pointwise_initializer": {"class_name": "GlorotUniform", "config": {"seed": null}}, "bias_initializer": {"class_name": "Zeros", "config": {}}, "depthwise_regularizer": null, "pointwise_regularizer": null, "bias_regularizer": null, "activity_regularizer": null, "depthwise_constraint": null, "pointwise_constraint": null, "bias_constraint": null}, "build_config": {"input_shape": [null, 14, 14, 728]}, "name": "block13_sepconv2", "inbound_nodes": [{"args": [{"class_name": "__keras_tensor__", "config": {"shape": [null, 14, 14, 728], "dtype": "float32", "keras_history": ["block13_sepconv2_act", 0, 0]}}], "kwargs": {}}]}, {"class_name": "BatchNormalization", "config": {"name": "block13_sepconv2_bn", "trainable": true, "dtype": {"class_name": "DTypePolicy", "config": {"name": "float32"}, "shared_object_id": 6389291280}, "axis": -1, "momentum": 0.99, "epsilon": 0.001, "center": true, "scale": true, "beta_initializer": {"class_name": "Zeros", "config": {}}, "gamma_initializer": {"class_name": "Ones", "config": {}}, "moving_mean_initializer": {"class_name": "Zeros", "config": {}}, "moving_variance_initializer": {"class_name": "Ones", "config": {}}, "beta_regularizer": null, "gamma_regularizer": null, "beta_constraint": null, "gamma_constraint": null, "synchronized": false}, "build_config": {"input_shape": [null, 14, 14, 1024]}, "name": "block13_sepconv2_bn", "inbound_nodes": [{"args": [{"class_name": "__keras_tensor__", "config": {"shape": [null, 14, 14, 1024], "dtype": "float32", "keras_history": ["block13_sepconv2", 0, 0]}}], "kwargs": {"mask": null}}]}, {"class_name": "Conv2D", "config": {"name": "conv2d_3", "trainable": true, "dtype": {"class_name": "DTypePolicy", "config": {"name": "float32"}, "shared_object_id": 6389291280}, "filters": 1024, "kernel_size": [1, 1], "strides": [2, 2], "padding": "same", "data_format": "channels_last", "dilation_rate": [1, 1], "groups": 1, "activation": "linear", "use_bias": false, "kernel_initializer": {"class_name": "GlorotUniform", "config": {"seed": null}}, "bias_initializer": {"class_name": "Zeros", "config": {}}, "kernel_regularizer": null, "bias_regularizer": null, "activity_regularizer": null, "kernel_constraint": null, "bias_constraint": null}, "build_config": {"input_shape": [null, 14, 14, 728]}, "name": "conv2d_3", "inbound_nodes": [{"args": [{"class_name": "__keras_tensor__", "config": {"shape": [null, 14, 14, 728], "dtype": "float32", "keras_history": ["add_10", 0, 0]}}], "kwargs": {}}]}, {"class_name": "MaxPooling2D", "config": {"name": "block13_pool", "trainable": true, "dtype": {"class_name": "DTypePolicy", "config": {"name": "float32"}, "shared_object_id": 6389291280}, "pool_size": [3, 3], "padding": "same", "strides": [2, 2], "data_format": "channels_last"}, "name": "block13_pool", "inbound_nodes": [{"args": [{"class_name": "__keras_tensor__", "config": {"shape": [null, 14, 14, 1024], "dtype": "float32", "keras_history": ["block13_sepconv2_bn", 0, 0]}}], "kwargs": {}}]}, {"class_name": "BatchNormalization", "config": {"name": "batch_normalization_3", "trainable": true, "dtype": {"class_name": "DTypePolicy", "config": {"name": "float32"}, "shared_object_id": 6389291280}, "axis": -1, "momentum": 0.99, "epsilon": 0.001, "center": true, "scale": true, "beta_initializer": {"class_name": "Zeros", "config": {}}, "gamma_initializer": {"class_name": "Ones", "config": {}}, "moving_mean_initializer": {"class_name": "Zeros", "config": {}}, "moving_variance_initializer": {"class_name": "Ones", "config": {}}, "beta_regularizer": null, "gamma_regularizer": null, "beta_constraint": null, "gamma_constraint": null, "synchronized": false}, "build_config": {"input_shape": [null, 7, 7, 1024]}, "name": "batch_normalization_3", "inbound_nodes": [{"args": [{"class_name": "__keras_tensor__", "config": {"shape": [null, 7, 7, 1024], "dtype": "float32", "keras_history": ["conv2d_3", 0, 0]}}], "kwargs": {"mask": null}}]}, {"class_name": "Add", "config": {"name": "add_11", "trainable": true, "dtype": {"class_name": "DTypePolicy", "config": {"name": "float32"}, "shared_object_id": 6389291280}}, "build_config": {"input_shape": [[null, 7, 7, 1024], [null, 7, 7, 1024]]}, "name": "add_11", "inbound_nodes": [{"args": [[{"class_name": "__keras_tensor__", "config": {"shape": [null, 7, 7, 1024], "dtype": "float32", "keras_history": ["block13_pool", 0, 0]}}, {"class_name": "__keras_tensor__", "config": {"shape": [null, 7, 7, 1024], "dtype": "float32", "keras_history": ["batch_normalization_3", 0, 0]}}]], "kwargs": {}}]}, {"class_name": "SeparableConv2D", "config": {"name": "block14_sepconv1", "trainable": true, "dtype": {"class_name": "DTypePolicy", "config": {"name": "float32"}, "shared_object_id": 6389291280}, "depth_multiplier": 1, "filters": 1536, "kernel_size": [3, 3], "strides": [1, 1], "padding": "same", "data_format": "channels_last", "dilation_rate": [1, 1], "activation": "linear", "use_bias": false, "depthwise_initializer": {"class_name": "GlorotUniform", "config": {"seed": null}}, "pointwise_initializer": {"class_name": "GlorotUniform", "config": {"seed": null}}, "bias_initializer": {"class_name": "Zeros", "config": {}}, "depthwise_regularizer": null, "pointwise_regularizer": null, "bias_regularizer": null, "activity_regularizer": null, "depthwise_constraint": null, "pointwise_constraint": null, "bias_constraint": null}, "build_config": {"input_shape": [null, 7, 7, 1024]}, "name": "block14_sepconv1", "inbound_nodes": [{"args": [{"class_name": "__keras_tensor__", "config": {"shape": [null, 7, 7, 1024], "dtype": "float32", "keras_history": ["add_11", 0, 0]}}], "kwargs": {}}]}, {"class_name": "BatchNormalization", "config": {"name": "block14_sepconv1_bn", "trainable": true, "dtype": {"class_name": "DTypePolicy", "config": {"name": "float32"}, "shared_object_id": 6389291280}, "axis": -1, "momentum": 0.99, "epsilon": 0.001, "center": true, "scale": true, "beta_initializer": {"class_name": "Zeros", "config": {}}, "gamma_initializer": {"class_name": "Ones", "config": {}}, "moving_mean_initializer": {"class_name": "Zeros", "config": {}}, "moving_variance_initializer": {"class_name": "Ones", "config": {}}, "beta_regularizer": null, "gamma_regularizer": null, "beta_constraint": null, "gamma_constraint": null, "synchronized": false}, "build_config": {"input_shape": [null, 7, 7, 1536]}, "name": "block14_sepconv1_bn", "inbound_nodes": [{"args": [{"class_name": "__keras_tensor__", "config": {"shape": [null, 7, 7, 1536], "dtype": "float32", "keras_history": ["block14_sepconv1", 0, 0]}}], "kwargs": {"mask": null}}]}, {"class_name": "Activation", "config": {"name": "block14_sepconv1_act", "trainable": true, "dtype": {"class_name": "DTypePolicy", "config": {"name": "float32"}, "shared_object_id": 6389291280}, "activation": "relu"}, "name": "block14_sepconv1_act", "inbound_nodes": [{"args": [{"class_name": "__keras_tensor__", "config": {"shape": [null, 7, 7, 1536], "dtype": "float32", "keras_history": ["block14_sepconv1_bn", 0, 0]}}], "kwargs": {}}]}, {"class_name": "SeparableConv2D", "config": {"name": "block14_sepconv2", "trainable": true, "dtype": {"class_name": "DTypePolicy", "config": {"name": "float32"}, "shared_object_id": 6389291280}, "depth_multiplier": 1, "filters": 2048, "kernel_size": [3, 3], "strides": [1, 1], "padding": "same", "data_format": "channels_last", "dilation_rate": [1, 1], "activation": "linear", "use_bias": false, "depthwise_initializer": {"class_name": "GlorotUniform", "config": {"seed": null}}, "pointwise_initializer": {"class_name": "GlorotUniform", "config": {"seed": null}}, "bias_initializer": {"class_name": "Zeros", "config": {}}, "depthwise_regularizer": null, "pointwise_regularizer": null, "bias_regularizer": null, "activity_regularizer": null, "depthwise_constraint": null, "pointwise_constraint": null, "bias_constraint": null}, "build_config": {"input_shape": [null, 7, 7, 1536]}, "name": "block14_sepconv2", "inbound_nodes": [{"args": [{"class_name": "__keras_tensor__", "config": {"shape": [null, 7, 7, 1536], "dtype": "float32", "keras_history": ["block14_sepconv1_act", 0, 0]}}], "kwargs": {}}]}, {"class_name": "BatchNormalization", "config": {"name": "block14_sepconv2_bn", "trainable": true, "dtype": {"class_name": "DTypePolicy", "config": {"name": "float32"}, "shared_object_id": 6389291280}, "axis": -1, "momentum": 0.99, "epsilon": 0.001, "center": true, "scale": true, "beta_initializer": {"class_name": "Zeros", "config": {}}, "gamma_initializer": {"class_name": "Ones", "config": {}}, "moving_mean_initializer": {"class_name": "Zeros", "config": {}}, "moving_variance_initializer": {"class_name": "Ones", "config": {}}, "beta_regularizer": null, "gamma_regularizer": null, "beta_constraint": null, "gamma_constraint": null, "synchronized": false}, "build_config": {"input_shape": [null, 7, 7, 2048]}, "name": "block14_sepconv2_bn", "inbound_nodes": [{"args": [{"class_name": "__keras_tensor__", "config": {"shape": [null, 7, 7, 2048], "dtype": "float32", "keras_history": ["block14_sepconv2", 0, 0]}}], "kwargs": {"mask": null}}]}, {"class_name": "Activation", "config": {"name": "block14_sepconv2_act", "trainable": true, "dtype": {"class_name": "DTypePolicy", "config": {"name": "float32"}, "shared_object_id": 6389291280}, "activation": "relu"}, "name": "block14_sepconv2_act", "inbound_nodes": [{"args": [{"class_name": "__keras_tensor__", "config": {"shape": [null, 7, 7, 2048], "dtype": "float32", "keras_history": ["block14_sepconv2_bn", 0, 0]}}], "kwargs": {}}]}], "input_layers": ["input_layer", 0, 0], "output_layers": ["block14_sepconv2_act", 0, 0]}, "build_config": {"input_shape": null}, "compile_config": {}}, {"class_name": "GlobalAveragePooling2D", "config": {"name": "global_average_pooling2d", "trainable": true, "dtype": {"class_name": "DTypePolicy", "config": {"name": "float32"}, "shared_object_id": 6389291280}, "data_format": "channels_last", "keepdims": false}}, {"class_name": "BatchNormalization", "config": {"name": "batch_normalization_4", "trainable": true, "dtype": {"class_name": "DTypePolicy", "config": {"name": "float32"}, "shared_object_id": 6389291280}, "axis": -1, "momentum": 0.99, "epsilon": 0.001, "center": true, "scale": true, "beta_initializer": {"class_name": "Zeros", "config": {}}, "gamma_initializer": {"class_name": "Ones", "config": {}}, "moving_mean_initializer": {"class_name": "Zeros", "config": {}}, "moving_variance_initializer": {"class_name": "Ones", "config": {}}, "beta_regularizer": null, "gamma_regularizer": null, "beta_constraint": null, "gamma_constraint": null, "synchronized": false}, "build_config": {"input_shape": [null, 2048]}}, {"class_name": "Dense", "config": {"name": "dense", "trainable": true, "dtype": {"class_name": "DTypePolicy", "config": {"name": "float32"}, "shared_object_id": 6389291280}, "units": 256, "activation": "relu", "use_bias": true, "kernel_initializer": {"class_name": "GlorotUniform", "config": {"seed": null}}, "bias_initializer": {"class_name": "Zeros", "config": {}}, "kernel_regularizer": null, "bias_regularizer": null, "kernel_constraint": null, "bias_constraint": null, "quantization_config": null}, "build_config": {"input_shape": [null, 2048]}}, {"class_name": "Dropout", "config": {"name": "dropout", "trainable": true, "dtype": {"class_name": "DTypePolicy", "config": {"name": "float32"}, "shared_object_id": 6389291280}, "rate": 0.5, "seed": null, "noise_shape": null}}, {"class_name": "Dense", "config": {"name": "dense_1", "trainable": true, "dtype": {"class_name": "DTypePolicy", "config": {"name": "float32"}, "shared_object_id": 6389291280}, "units": 1, "activation": "sigmoid", "use_bias": true, "kernel_initializer": {"class_name": "GlorotUniform", "config": {"seed": null}}, "bias_initializer": {"class_name": "Zeros", "config": {}}, "kernel_regularizer": null, "bias_regularizer": null, "kernel_constraint": null, "bias_constraint": null, "quantization_config": null}, "build_config": {"input_shape": [null, 256]}}], "build_input_shape": [null, 224, 224, 3]}, "build_config": {"input_shape": [null, 224, 224, 3]}, "compile_config": {"optimizer": {"class_name": "Adam", "config": {"name": "adam", "learning_rate": 9.999999747378752e-05, "weight_decay": null, "clipnorm": null, "global_clipnorm": null, "clipvalue": null, "use_ema": false, "ema_momentum": 0.99, "ema_overwrite_frequency": null, "loss_scale_factor": null, "gradient_accumulation_steps": null, "beta_1": 0.9, "beta_2": 0.999, "epsilon": 1e-07, "amsgrad": false}}, "loss": "binary_crossentropy", "loss_weights": null, "metrics": ["accuracy"], "weighted_metrics": null, "run_eagerly": false, "steps_per_execution": 1, "jit_compile": false}}}, "weightsManifest": [{"paths": ["group1-shard1of1.bin"], "weights": [{"name": "layers/batch_normalization/vars/0", "shape": [2048], "dtype": "float32"}, {"name": "layers/batch_normalization/vars/1", "shape": [2048], "dtype": "float32"}, {"name": "layers/batch_normalization/vars/2", "shape": [2048], "dtype": "float32"}, {"name": "layers/batch_normalization/vars/3", "shape": [2048], "dtype": "float32"}, {"name": "layers/dense/vars/0", "shape": [2048, 256], "dtype": "float32"}, {"name": "layers/dense/vars/1", "shape": [256], "dtype": "float32"}, {"name": "layers/dense_1/vars/0", "shape": [256, 1], "dtype": "float32"}, {"name": "layers/dense_1/vars/1", "shape": [1], "dtype": "float32"}, {"name": "layers/functional/layers/batch_normalization/vars/0", "shape": [32], "dtype": "float32"}, {"name": "layers/functional/layers/batch_normalization/vars/1", "shape": [32], "dtype": "float32"}, {"name": "layers/functional/layers/batch_normalization/vars/2", "shape": [32], "dtype": "float32"}, {"name": "layers/functional/layers/batch_normalization/vars/3", "shape": [32], "dtype": "float32"}, {"name": "layers/functional/layers/batch_normalization_1/vars/0", "shape": [64], "dtype": "float32"}, {"name": "layers/functional/layers/batch_normalization_1/vars/1", "shape": [64], "dtype": "float32"}, {"name": "layers/functional/layers/batch_normalization_1/vars/2", "shape": [64], "dtype": "float32"}, {"name": "layers/functional/layers/batch_normalization_1/vars/3", "shape": [64], "dtype": "float32"}, {"name": "layers/functional/layers/batch_normalization_10/vars/0", "shape": [728], "dtype": "float32"}, {"name": "layers/functional/layers/batch_normalization_10/vars/1", "shape": [728], "dtype": "float32"}, {"name": "layers/functional/layers/batch_normalization_10/vars/2", "shape": [728], "dtype": "float32"}, {"name": "layers/functional/layers/batch_normalization_10/vars/3", "shape": [728], "dtype": "float32"}, {"name": "layers/functional/layers/batch_normalization_11/vars/0", "shape": [728], "dtype": "float32"}, {"name": "layers/functional/layers/batch_normalization_11/vars/1", "shape": [728], "dtype": "float32"}, {"name": "layers/functional/layers/batch_normalization_11/vars/2", "shape": [728], "dtype": "float32"}, {"name": "layers/functional/layers/batch_normalization_11/vars/3", "shape": [728], "dtype": "float32"}, {"name": "layers/functional/layers/batch_normalization_12/vars/0", "shape": [728], "dtype": "float32"}, {"name": "layers/functional/layers/batch_normalization_12/vars/1", "shape": [728], "dtype": "float32"}, {"name": "layers/functional/layers/batch_normalization_12/vars/2", "shape": [728], "dtype": "float32"}, {"name": "layers/functional/layers/batch_normalization_12/vars/3", "shape": [728], "dtype": "float32"}, {"name": "layers/functional/layers/batch_normalization_13/vars/0", "shape": [728], "dtype": "float32"}, {"name": "layers/functional/layers/batch_normalization_13/vars/1", "shape": [728], "dtype": "float32"}, {"name": "layers/functional/layers/batch_normalization_13/vars/2", "shape": [728], "dtype": "float32"}, {"name": "layers/functional/layers/batch_normalization_13/vars/3", "shape": [728], "dtype": "float32"}, {"name": "layers/functional/layers/batch_normalization_14/vars/0", "shape": [728], "dtype": "float32"}, {"name": "layers/functional/layers/batch_normalization_14/vars/1", "shape": [728], "dtype": "float32"}, {"name": "layers/functional/layers/batch_normalization_14/vars/2", "shape": [728], "dtype": "float32"}, {"name": "layers/functional/layers/batch_normalization_14/vars/3", "shape": [728], "dtype": "float32"}, {"name": "layers/functional/layers/batch_normalization_15/vars/0", "shape": [728], "dtype": "float32"}, {"name": "layers/functional/layers/batch_normalization_15/vars/1", "shape": [728], "dtype": "float32"}, {"name": "layers/functional/layers/batch_normalization_15/vars/2", "shape": [728], "dtype": "float32"}, {"name": "layers/functional/layers/batch_normalization_15/vars/3", "shape": [728], "dtype": "float32"}, {"name": "layers/functional/layers/batch_normalization_16/vars/0", "shape": [728], "dtype": "float32"}, {"name": "layers/functional/layers/batch_normalization_16/vars/1", "shape": [728], "dtype": "float32"}, {"name": "layers/functional/layers/batch_normalization_16/vars/2", "shape": [728], "dtype": "float32"}, {"name": "layers/functional/layers/batch_normalization_16/vars/3", "shape": [728], "dtype": "float32"}, {"name": "layers/functional/layers/batch_normalization_17/vars/0", "shape": [728], "dtype": "float32"}, {"name": "layers/functional/layers/batch_normalization_17/vars/1", "shape": [728], "dtype": "float32"}, {"name": "layers/functional/layers/batch_normalization_17/vars/2", "shape": [728], "dtype": "float32"}, {"name": "layers/functional/layers/batch_normalization_17/vars/3", "shape": [728], "dtype": "float32"}, {"name": "layers/functional/layers/batch_normalization_18/vars/0", "shape": [728], "dtype": "float32"}, {"name": "layers/functional/layers/batch_normalization_18/vars/1", "shape": [728], "dtype": "float32"}, {"name": "layers/functional/layers/batch_normalization_18/vars/2", "shape": [728], "dtype": "float32"}, {"name": "layers/functional/layers/batch_normalization_18/vars/3", "shape": [728], "dtype": "float32"}, {"name": "layers/functional/layers/batch_normalization_19/vars/0", "shape": [728], "dtype": "float32"}, {"name": "layers/functional/layers/batch_normalization_19/vars/1", "shape": [728], "dtype": "float32"}, {"name": "layers/functional/layers/batch_normalization_19/vars/2", "shape": [728], "dtype": "float32"}, {"name": "layers/functional/layers/batch_normalization_19/vars/3", "shape": [728], "dtype": "float32"}, {"name": "layers/functional/layers/batch_normalization_2/vars/0", "shape": [128], "dtype": "float32"}, {"name": "layers/functional/layers/batch_normalization_2/vars/1", "shape": [128], "dtype": "float32"}, {"name": "layers/functional/layers/batch_normalization_2/vars/2", "shape": [128], "dtype": "float32"}, {"name": "layers/functional/layers/batch_normalization_2/vars/3", "shape": [128], "dtype": "float32"}, {"name": "layers/functional/layers/batch_normalization_20/vars/0", "shape": [728], "dtype": "float32"}, {"name": "layers/functional/layers/batch_normalization_20/vars/1", "shape": [728], "dtype": "float32"}, {"name": "layers/functional/layers/batch_normalization_20/vars/2", "shape": [728], "dtype": "float32"}, {"name": "layers/functional/layers/batch_normalization_20/vars/3", "shape": [728], "dtype": "float32"}, {"name": "layers/functional/layers/batch_normalization_21/vars/0", "shape": [728], "dtype": "float32"}, {"name": "layers/functional/layers/batch_normalization_21/vars/1", "shape": [728], "dtype": "float32"}, {"name": "layers/functional/layers/batch_normalization_21/vars/2", "shape": [728], "dtype": "float32"}, {"name": "layers/functional/layers/batch_normalization_21/vars/3", "shape": [728], "dtype": "float32"}, {"name": "layers/functional/layers/batch_normalization_22/vars/0", "shape": [728], "dtype": "float32"}, {"name": "layers/functional/layers/batch_normalization_22/vars/1", "shape": [728], "dtype": "float32"}, {"name": "layers/functional/layers/batch_normalization_22/vars/2", "shape": [728], "dtype": "float32"}, {"name": "layers/functional/layers/batch_normalization_22/vars/3", "shape": [728], "dtype": "float32"}, {"name": "layers/functional/layers/batch_normalization_23/vars/0", "shape": [728], "dtype": "float32"}, {"name": "layers/functional/layers/batch_normalization_23/vars/1", "shape": [728], "dtype": "float32"}, {"name": "layers/functional/layers/batch_normalization_23/vars/2", "shape": [728], "dtype": "float32"}, {"name": "layers/functional/layers/batch_normalization_23/vars/3", "shape": [728], "dtype": "float32"}, {"name": "layers/functional/layers/batch_normalization_24/vars/0", "shape": [728], "dtype": "float32"}, {"name": "layers/functional/layers/batch_normalization_24/vars/1", "shape": [728], "dtype": "float32"}, {"name": "layers/functional/layers/batch_normalization_24/vars/2", "shape": [728], "dtype": "float32"}, {"name": "layers/functional/layers/batch_normalization_24/vars/3", "shape": [728], "dtype": "float32"}, {"name": "layers/functional/layers/batch_normalization_25/vars/0", "shape": [728], "dtype": "float32"}, {"name": "layers/functional/layers/batch_normalization_25/vars/1", "shape": [728], "dtype": "float32"}, {"name": "layers/functional/layers/batch_normalization_25/vars/2", "shape": [728], "dtype": "float32"}, {"name": "layers/functional/layers/batch_normalization_25/vars/3", "shape": [728], "dtype": "float32"}, {"name": "layers/functional/layers/batch_normalization_26/vars/0", "shape": [728], "dtype": "float32"}, {"name": "layers/functional/layers/batch_normalization_26/vars/1", "shape": [728], "dtype": "float32"}, {"name": "layers/functional/layers/batch_normalization_26/vars/2", "shape": [728], "dtype": "float32"}, {"name": "layers/functional/layers/batch_normalization_26/vars/3", "shape": [728], "dtype": "float32"}, {"name": "layers/functional/layers/batch_normalization_27/vars/0", "shape": [728], "dtype": "float32"}, {"name": "layers/functional/layers/batch_normalization_27/vars/1", "shape": [728], "dtype": "float32"}, {"name": "layers/functional/layers/batch_normalization_27/vars/2", "shape": [728], "dtype": "float32"}, {"name": "layers/functional/layers/batch_normalization_27/vars/3", "shape": [728], "dtype": "float32"}, {"name": "layers/functional/layers/batch_normalization_28/vars/0", "shape": [728], "dtype": "float32"}, {"name": "layers/functional/layers/batch_normalization_28/vars/1", "shape": [728], "dtype": "float32"}, {"name": "layers/functional/layers/batch_normalization_28/vars/2", "shape": [728], "dtype": "float32"}, {"name": "layers/functional/layers/batch_normalization_28/vars/3", "shape": [728], "dtype": "float32"}, {"name": "layers/functional/layers/batch_normalization_29/vars/0", "shape": [728], "dtype": "float32"}, {"name": "layers/functional/layers/batch_normalization_29/vars/1", "shape": [728], "dtype": "float32"}, {"name": "layers/functional/layers/batch_normalization_29/vars/2", "shape": [728], "dtype": "float32"}, {"name": "layers/functional/layers/batch_normalization_29/vars/3", "shape": [728], "dtype": "float32"}, {"name": "layers/functional/layers/batch_normalization_3/vars/0", "shape": [128], "dtype": "float32"}, {"name": "layers/functional/layers/batch_normalization_3/vars/1", "shape": [128], "dtype": "float32"}, {"name": "layers/functional/layers/batch_normalization_3/vars/2", "shape": [128], "dtype": "float32"}, {"name": "layers/functional/layers/batch_normalization_3/vars/3", "shape": [128], "dtype": "float32"}, {"name": "layers/functional/layers/batch_normalization_30/vars/0", "shape": [728], "dtype": "float32"}, {"name": "layers/functional/layers/batch_normalization_30/vars/1", "shape": [728], "dtype": "float32"}, {"name": "layers/functional/layers/batch_normalization_30/vars/2", "shape": [728], "dtype": "float32"}, {"name": "layers/functional/layers/batch_normalization_30/vars/3", "shape": [728], "dtype": "float32"}, {"name": "layers/functional/layers/batch_normalization_31/vars/0", "shape": [728], "dtype": "float32"}, {"name": "layers/functional/layers/batch_normalization_31/vars/1", "shape": [728], "dtype": "float32"}, {"name": "layers/functional/layers/batch_normalization_31/vars/2", "shape": [728], "dtype": "float32"}, {"name": "layers/functional/layers/batch_normalization_31/vars/3", "shape": [728], "dtype": "float32"}, {"name": "layers/functional/layers/batch_normalization_32/vars/0", "shape": [728], "dtype": "float32"}, {"name": "layers/functional/layers/batch_normalization_32/vars/1", "shape": [728], "dtype": "float32"}, {"name": "layers/functional/layers/batch_normalization_32/vars/2", "shape": [728], "dtype": "float32"}, {"name": "layers/functional/layers/batch_normalization_32/vars/3", "shape": [728], "dtype": "float32"}, {"name": "layers/functional/layers/batch_normalization_33/vars/0", "shape": [728], "dtype": "float32"}, {"name": "layers/functional/layers/batch_normalization_33/vars/1", "shape": [728], "dtype": "float32"}, {"name": "layers/functional/layers/batch_normalization_33/vars/2", "shape": [728], "dtype": "float32"}, {"name": "layers/functional/layers/batch_normalization_33/vars/3", "shape": [728], "dtype": "float32"}, {"name": "layers/functional/layers/batch_normalization_34/vars/0", "shape": [728], "dtype": "float32"}, {"name": "layers/functional/layers/batch_normalization_34/vars/1", "shape": [728], "dtype": "float32"}, {"name": "layers/functional/layers/batch_normalization_34/vars/2", "shape": [728], "dtype": "float32"}, {"name": "layers/functional/layers/batch_normalization_34/vars/3", "shape": [728], "dtype": "float32"}, {"name": "layers/functional/layers/batch_normalization_35/vars/0", "shape": [728], "dtype": "float32"}, {"name": "layers/functional/layers/batch_normalization_35/vars/1", "shape": [728], "dtype": "float32"}, {"name": "layers/functional/layers/batch_normalization_35/vars/2", "shape": [728], "dtype": "float32"}, {"name": "layers/functional/layers/batch_normalization_35/vars/3", "shape": [728], "dtype": "float32"}, {"name": "layers/functional/layers/batch_normalization_36/vars/0", "shape": [1024], "dtype": "float32"}, {"name": "layers/functional/layers/batch_normalization_36/vars/1", "shape": [1024], "dtype": "float32"}, {"name": "layers/functional/layers/batch_normalization_36/vars/2", "shape": [1024], "dtype": "float32"}, {"name": "layers/functional/layers/batch_normalization_36/vars/3", "shape": [1024], "dtype": "float32"}, {"name": "layers/functional/layers/batch_normalization_37/vars/0", "shape": [1024], "dtype": "float32"}, {"name": "layers/functional/layers/batch_normalization_37/vars/1", "shape": [1024], "dtype": "float32"}, {"name": "layers/functional/layers/batch_normalization_37/vars/2", "shape": [1024], "dtype": "float32"}, {"name": "layers/functional/layers/batch_normalization_37/vars/3", "shape": [1024], "dtype": "float32"}, {"name": "layers/functional/layers/batch_normalization_38/vars/0", "shape": [1536], "dtype": "float32"}, {"name": "layers/functional/layers/batch_normalization_38/vars/1", "shape": [1536], "dtype": "float32"}, {"name": "layers/functional/layers/batch_normalization_38/vars/2", "shape": [1536], "dtype": "float32"}, {"name": "layers/functional/layers/batch_normalization_38/vars/3", "shape": [1536], "dtype": "float32"}, {"name": "layers/functional/layers/batch_normalization_39/vars/0", "shape": [2048], "dtype": "float32"}, {"name": "layers/functional/layers/batch_normalization_39/vars/1", "shape": [2048], "dtype": "float32"}, {"name": "layers/functional/layers/batch_normalization_39/vars/2", "shape": [2048], "dtype": "float32"}, {"name": "layers/functional/layers/batch_normalization_39/vars/3", "shape": [2048], "dtype": "float32"}, {"name": "layers/functional/layers/batch_normalization_4/vars/0", "shape": [128], "dtype": "float32"}, {"name": "layers/functional/layers/batch_normalization_4/vars/1", "shape": [128], "dtype": "float32"}, {"name": "layers/functional/layers/batch_normalization_4/vars/2", "shape": [128], "dtype": "float32"}, {"name": "layers/functional/layers/batch_normalization_4/vars/3", "shape": [128], "dtype": "float32"}, {"name": "layers/functional/layers/batch_normalization_5/vars/0", "shape": [256], "dtype": "float32"}, {"name": "layers/functional/layers/batch_normalization_5/vars/1", "shape": [256], "dtype": "float32"}, {"name": "layers/functional/layers/batch_normalization_5/vars/2", "shape": [256], "dtype": "float32"}, {"name": "layers/functional/layers/batch_normalization_5/vars/3", "shape": [256], "dtype": "float32"}, {"name": "layers/functional/layers/batch_normalization_6/vars/0", "shape": [256], "dtype": "float32"}, {"name": "layers/functional/layers/batch_normalization_6/vars/1", "shape": [256], "dtype": "float32"}, {"name": "layers/functional/layers/batch_normalization_6/vars/2", "shape": [256], "dtype": "float32"}, {"name": "layers/functional/layers/batch_normalization_6/vars/3", "shape": [256], "dtype": "float32"}, {"name": "layers/functional/layers/batch_normalization_7/vars/0", "shape": [256], "dtype": "float32"}, {"name": "layers/functional/layers/batch_normalization_7/vars/1", "shape": [256], "dtype": "float32"}, {"name": "layers/functional/layers/batch_normalization_7/vars/2", "shape": [256], "dtype": "float32"}, {"name": "layers/functional/layers/batch_normalization_7/vars/3", "shape": [256], "dtype": "float32"}, {"name": "layers/functional/layers/batch_normalization_8/vars/0", "shape": [728], "dtype": "float32"}, {"name": "layers/functional/layers/batch_normalization_8/vars/1", "shape": [728], "dtype": "float32"}, {"name": "layers/functional/layers/batch_normalization_8/vars/2", "shape": [728], "dtype": "float32"}, {"name": "layers/functional/layers/batch_normalization_8/vars/3", "shape": [728], "dtype": "float32"}, {"name": "layers/functional/layers/batch_normalization_9/vars/0", "shape": [728], "dtype": "float32"}, {"name": "layers/functional/layers/batch_normalization_9/vars/1", "shape": [728], "dtype": "float32"}, {"name": "layers/functional/layers/batch_normalization_9/vars/2", "shape": [728], "dtype": "float32"}, {"name": "layers/functional/layers/batch_normalization_9/vars/3", "shape": [728], "dtype": "float32"}, {"name": "layers/functional/layers/conv2d/vars/0", "shape": [3, 3, 3, 32], "dtype": "float32"}, {"name": "layers/functional/layers/conv2d_1/vars/0", "shape": [3, 3, 32, 64], "dtype": "float32"}, {"name": "layers/functional/layers/conv2d_2/vars/0", "shape": [1, 1, 64, 128], "dtype": "float32"}, {"name": "layers/functional/layers/conv2d_3/vars/0", "shape": [1, 1, 128, 256], "dtype": "float32"}, {"name": "layers/functional/layers/conv2d_4/vars/0", "shape": [1, 1, 256, 728], "dtype": "float32"}, {"name": "layers/functional/layers/conv2d_5/vars/0", "shape": [1, 1, 728, 1024], "dtype": "float32"}, {"name": "layers/functional/layers/separable_conv2d/vars/0", "shape": [3, 3, 64, 1], "dtype": "float32"}, {"name": "layers/functional/layers/separable_conv2d/vars/1", "shape": [1, 1, 64, 128], "dtype": "float32"}, {"name": "layers/functional/layers/separable_conv2d_1/vars/0", "shape": [3, 3, 128, 1], "dtype": "float32"}, {"name": "layers/functional/layers/separable_conv2d_1/vars/1", "shape": [1, 1, 128, 128], "dtype": "float32"}, {"name": "layers/functional/layers/separable_conv2d_10/vars/0", "shape": [3, 3, 728, 1], "dtype": "float32"}, {"name": "layers/functional/layers/separable_conv2d_10/vars/1", "shape": [1, 1, 728, 728], "dtype": "float32"}, {"name": "layers/functional/layers/separable_conv2d_11/vars/0", "shape": [3, 3, 728, 1], "dtype": "float32"}, {"name": "layers/functional/layers/separable_conv2d_11/vars/1", "shape": [1, 1, 728, 728], "dtype": "float32"}, {"name": "layers/functional/layers/separable_conv2d_12/vars/0", "shape": [3, 3, 728, 1], "dtype": "float32"}, {"name": "layers/functional/layers/separable_conv2d_12/vars/1", "shape": [1, 1, 728, 728], "dtype": "float32"}, {"name": "layers/functional/layers/separable_conv2d_13/vars/0", "shape": [3, 3, 728, 1], "dtype": "float32"}, {"name": "layers/functional/layers/separable_conv2d_13/vars/1", "shape": [1, 1, 728, 728], "dtype": "float32"}, {"name": "layers/functional/layers/separable_conv2d_14/vars/0", "shape": [3, 3, 728, 1], "dtype": "float32"}, {"name": "layers/functional/layers/separable_conv2d_14/vars/1", "shape": [1, 1, 728, 728], "dtype": "float32"}, {"name": "layers/functional/layers/separable_conv2d_15/vars/0", "shape": [3, 3, 728, 1], "dtype": "float32"}, {"name": "layers/functional/layers/separable_conv2d_15/vars/1", "shape": [1, 1, 728, 728], "dtype": "float32"}, {"name": "layers/functional/layers/separable_conv2d_16/vars/0", "shape": [3, 3, 728, 1], "dtype": "float32"}, {"name": "layers/functional/layers/separable_conv2d_16/vars/1", "shape": [1, 1, 728, 728], "dtype": "float32"}, {"name": "layers/functional/layers/separable_conv2d_17/vars/0", "shape": [3, 3, 728, 1], "dtype": "float32"}, {"name": "layers/functional/layers/separable_conv2d_17/vars/1", "shape": [1, 1, 728, 728], "dtype": "float32"}, {"name": "layers/functional/layers/separable_conv2d_18/vars/0", "shape": [3, 3, 728, 1], "dtype": "float32"}, {"name": "layers/functional/layers/separable_conv2d_18/vars/1", "shape": [1, 1, 728, 728], "dtype": "float32"}, {"name": "layers/functional/layers/separable_conv2d_19/vars/0", "shape": [3, 3, 728, 1], "dtype": "float32"}, {"name": "layers/functional/layers/separable_conv2d_19/vars/1", "shape": [1, 1, 728, 728], "dtype": "float32"}, {"name": "layers/functional/layers/separable_conv2d_2/vars/0", "shape": [3, 3, 128, 1], "dtype": "float32"}, {"name": "layers/functional/layers/separable_conv2d_2/vars/1", "shape": [1, 1, 128, 256], "dtype": "float32"}, {"name": "layers/functional/layers/separable_conv2d_20/vars/0", "shape": [3, 3, 728, 1], "dtype": "float32"}, {"name": "layers/functional/layers/separable_conv2d_20/vars/1", "shape": [1, 1, 728, 728], "dtype": "float32"}, {"name": "layers/functional/layers/separable_conv2d_21/vars/0", "shape": [3, 3, 728, 1], "dtype": "float32"}, {"name": "layers/functional/layers/separable_conv2d_21/vars/1", "shape": [1, 1, 728, 728], "dtype": "float32"}, {"name": "layers/functional/layers/separable_conv2d_22/vars/0", "shape": [3, 3, 728, 1], "dtype": "float32"}, {"name": "layers/functional/layers/separable_conv2d_22/vars/1", "shape": [1, 1, 728, 728], "dtype": "float32"}, {"name": "layers/functional/layers/separable_conv2d_23/vars/0", "shape": [3, 3, 728, 1], "dtype": "float32"}, {"name": "layers/functional/layers/separable_conv2d_23/vars/1", "shape": [1, 1, 728, 728], "dtype": "float32"}, {"name": "layers/functional/layers/separable_conv2d_24/vars/0", "shape": [3, 3, 728, 1], "dtype": "float32"}, {"name": "layers/functional/layers/separable_conv2d_24/vars/1", "shape": [1, 1, 728, 728], "dtype": "float32"}, {"name": "layers/functional/layers/separable_conv2d_25/vars/0", "shape": [3, 3, 728, 1], "dtype": "float32"}, {"name": "layers/functional/layers/separable_conv2d_25/vars/1", "shape": [1, 1, 728, 728], "dtype": "float32"}, {"name": "layers/functional/layers/separable_conv2d_26/vars/0", "shape": [3, 3, 728, 1], "dtype": "float32"}, {"name": "layers/functional/layers/separable_conv2d_26/vars/1", "shape": [1, 1, 728, 728], "dtype": "float32"}, {"name": "layers/functional/layers/separable_conv2d_27/vars/0", "shape": [3, 3, 728, 1], "dtype": "float32"}, {"name": "layers/functional/layers/separable_conv2d_27/vars/1", "shape": [1, 1, 728, 728], "dtype": "float32"}, {"name": "layers/functional/layers/separable_conv2d_28/vars/0", "shape": [3, 3, 728, 1], "dtype": "float32"}, {"name": "layers/functional/layers/separable_conv2d_28/vars/1", "shape": [1, 1, 728, 728], "dtype": "float32"}, {"name": "layers/functional/layers/separable_conv2d_29/vars/0", "shape": [3, 3, 728, 1], "dtype": "float32"}, {"name": "layers/functional/layers/separable_conv2d_29/vars/1", "shape": [1, 1, 728, 728], "dtype": "float32"}, {"name": "layers/functional/layers/separable_conv2d_3/vars/0", "shape": [3, 3, 256, 1], "dtype": "float32"}, {"name": "layers/functional/layers/separable_conv2d_3/vars/1", "shape": [1, 1, 256, 256], "dtype": "float32"}, {"name": "layers/functional/layers/separable_conv2d_30/vars/0", "shape": [3, 3, 728, 1], "dtype": "float32"}, {"name": "layers/functional/layers/separable_conv2d_30/vars/1", "shape": [1, 1, 728, 728], "dtype": "float32"}, {"name": "layers/functional/layers/separable_conv2d_31/vars/0", "shape": [3, 3, 728, 1], "dtype": "float32"}, {"name": "layers/functional/layers/separable_conv2d_31/vars/1", "shape": [1, 1, 728, 1024], "dtype": "float32"}, {"name": "layers/functional/layers/separable_conv2d_32/vars/0", "shape": [3, 3, 1024, 1], "dtype": "float32"}, {"name": "layers/functional/layers/separable_conv2d_32/vars/1", "shape": [1, 1, 1024, 1536], "dtype": "float32"}, {"name": "layers/functional/layers/separable_conv2d_33/vars/0", "shape": [3, 3, 1536, 1], "dtype": "float32"}, {"name": "layers/functional/layers/separable_conv2d_33/vars/1", "shape": [1, 1, 1536, 2048], "dtype": "float32"}, {"name": "layers/functional/layers/separable_conv2d_4/vars/0", "shape": [3, 3, 256, 1], "dtype": "float32"}, {"name": "layers/functional/layers/separable_conv2d_4/vars/1", "shape": [1, 1, 256, 728], "dtype": "float32"}, {"name": "layers/functional/layers/separable_conv2d_5/vars/0", "shape": [3, 3, 728, 1], "dtype": "float32"}, {"name": "layers/functional/layers/separable_conv2d_5/vars/1", "shape": [1, 1, 728, 728], "dtype": "float32"}, {"name": "layers/functional/layers/separable_conv2d_6/vars/0", "shape": [3, 3, 728, 1], "dtype": "float32"}, {"name": "layers/functional/layers/separable_conv2d_6/vars/1", "shape": [1, 1, 728, 728], "dtype": "float32"}, {"name": "layers/functional/layers/separable_conv2d_7/vars/0", "shape": [3, 3, 728, 1], "dtype": "float32"}, {"name": "layers/functional/layers/separable_conv2d_7/vars/1", "shape": [1, 1, 728, 728], "dtype": "float32"}, {"name": "layers/functional/layers/separable_conv2d_8/vars/0", "shape": [3, 3, 728, 1], "dtype": "float32"}, {"name": "layers/functional/layers/separable_conv2d_8/vars/1", "shape": [1, 1, 728, 728], "dtype": "float32"}, {"name": "layers/functional/layers/separable_conv2d_9/vars/0", "shape": [3, 3, 728, 1], "dtype": "float32"}, {"name": "layers/functional/layers/separable_conv2d_9/vars/1", "shape": [1, 1, 728, 728], "dtype": "float32"}, {"name": "optimizer/vars/0", "shape": [], "dtype": "int32"}, {"name": "optimizer/vars/1", "shape": [], "dtype": "float32"}, {"name": "optimizer/vars/10", "shape": [3, 3, 728, 1], "dtype": "float32"}, {"name": "optimizer/vars/100", "shape": [2048, 256], "dtype": "float32"}, {"name": "optimizer/vars/101", "shape": [2048, 256], "dtype": "float32"}, {"name": "optimizer/vars/102", "shape": [256], "dtype": "float32"}, {"name": "optimizer/vars/103", "shape": [256], "dtype": "float32"}, {"name": "optimizer/vars/104", "shape": [256, 1], "dtype": "float32"}, {"name": "optimizer/vars/105", "shape": [256, 1], "dtype": "float32"}, {"name": "optimizer/vars/106", "shape": [1], "dtype": "float32"}, {"name": "optimizer/vars/107", "shape": [1], "dtype": "float32"}, {"name": "optimizer/vars/11", "shape": [3, 3, 728, 1], "dtype": "float32"}, {"name": "optimizer/vars/12", "shape": [1, 1, 728, 728], "dtype": "float32"}, {"name": "optimizer/vars/13", "shape": [1, 1, 728, 728], "dtype": "float32"}, {"name": "optimizer/vars/14", "shape": [728], "dtype": "float32"}, {"name": "optimizer/vars/15", "shape": [728], "dtype": "float32"}, {"name": "optimizer/vars/16", "shape": [728], "dtype": "float32"}, {"name": "optimizer/vars/17", "shape": [728], "dtype": "float32"}, {"name": "optimizer/vars/18", "shape": [3, 3, 728, 1], "dtype": "float32"}, {"name": "optimizer/vars/19", "shape": [3, 3, 728, 1], "dtype": "float32"}, {"name": "optimizer/vars/2", "shape": [3, 3, 728, 1], "dtype": "float32"}, {"name": "optimizer/vars/20", "shape": [1, 1, 728, 728], "dtype": "float32"}, {"name": "optimizer/vars/21", "shape": [1, 1, 728, 728], "dtype": "float32"}, {"name": "optimizer/vars/22", "shape": [728], "dtype": "float32"}, {"name": "optimizer/vars/23", "shape": [728], "dtype": "float32"}, {"name": "optimizer/vars/24", "shape": [728], "dtype": "float32"}, {"name": "optimizer/vars/25", "shape": [728], "dtype": "float32"}, {"name": "optimizer/vars/26", "shape": [3, 3, 728, 1], "dtype": "float32"}, {"name": "optimizer/vars/27", "shape": [3, 3, 728, 1], "dtype": "float32"}, {"name": "optimizer/vars/28", "shape": [1, 1, 728, 728], "dtype": "float32"}, {"name": "optimizer/vars/29", "shape": [1, 1, 728, 728], "dtype": "float32"}, {"name": "optimizer/vars/3", "shape": [3, 3, 728, 1], "dtype": "float32"}, {"name": "optimizer/vars/30", "shape": [728], "dtype": "float32"}, {"name": "optimizer/vars/31", "shape": [728], "dtype": "float32"}, {"name": "optimizer/vars/32", "shape": [728], "dtype": "float32"}, {"name": "optimizer/vars/33", "shape": [728], "dtype": "float32"}, {"name": "optimizer/vars/34", "shape": [3, 3, 728, 1], "dtype": "float32"}, {"name": "optimizer/vars/35", "shape": [3, 3, 728, 1], "dtype": "float32"}, {"name": "optimizer/vars/36", "shape": [1, 1, 728, 728], "dtype": "float32"}, {"name": "optimizer/vars/37", "shape": [1, 1, 728, 728], "dtype": "float32"}, {"name": "optimizer/vars/38", "shape": [728], "dtype": "float32"}, {"name": "optimizer/vars/39", "shape": [728], "dtype": "float32"}, {"name": "optimizer/vars/4", "shape": [1, 1, 728, 728], "dtype": "float32"}, {"name": "optimizer/vars/40", "shape": [728], "dtype": "float32"}, {"name": "optimizer/vars/41", "shape": [728], "dtype": "float32"}, {"name": "optimizer/vars/42", "shape": [3, 3, 728, 1], "dtype": "float32"}, {"name": "optimizer/vars/43", "shape": [3, 3, 728, 1], "dtype": "float32"}, {"name": "optimizer/vars/44", "shape": [1, 1, 728, 728], "dtype": "float32"}, {"name": "optimizer/vars/45", "shape": [1, 1, 728, 728], "dtype": "float32"}, {"name": "optimizer/vars/46", "shape": [728], "dtype": "float32"}, {"name": "optimizer/vars/47", "shape": [728], "dtype": "float32"}, {"name": "optimizer/vars/48", "shape": [728], "dtype": "float32"}, {"name": "optimizer/vars/49", "shape": [728], "dtype": "float32"}, {"name": "optimizer/vars/5", "shape": [1, 1, 728, 728], "dtype": "float32"}, {"name": "optimizer/vars/50", "shape": [3, 3, 728, 1], "dtype": "float32"}, {"name": "optimizer/vars/51", "shape": [3, 3, 728, 1], "dtype": "float32"}, {"name": "optimizer/vars/52", "shape": [1, 1, 728, 728], "dtype": "float32"}, {"name": "optimizer/vars/53", "shape": [1, 1, 728, 728], "dtype": "float32"}, {"name": "optimizer/vars/54", "shape": [728], "dtype": "float32"}, {"name": "optimizer/vars/55", "shape": [728], "dtype": "float32"}, {"name": "optimizer/vars/56", "shape": [728], "dtype": "float32"}, {"name": "optimizer/vars/57", "shape": [728], "dtype": "float32"}, {"name": "optimizer/vars/58", "shape": [3, 3, 728, 1], "dtype": "float32"}, {"name": "optimizer/vars/59", "shape": [3, 3, 728, 1], "dtype": "float32"}, {"name": "optimizer/vars/6", "shape": [728], "dtype": "float32"}, {"name": "optimizer/vars/60", "shape": [1, 1, 728, 728], "dtype": "float32"}, {"name": "optimizer/vars/61", "shape": [1, 1, 728, 728], "dtype": "float32"}, {"name": "optimizer/vars/62", "shape": [728], "dtype": "float32"}, {"name": "optimizer/vars/63", "shape": [728], "dtype": "float32"}, {"name": "optimizer/vars/64", "shape": [728], "dtype": "float32"}, {"name": "optimizer/vars/65", "shape": [728], "dtype": "float32"}, {"name": "optimizer/vars/66", "shape": [3, 3, 728, 1], "dtype": "float32"}, {"name": "optimizer/vars/67", "shape": [3, 3, 728, 1], "dtype": "float32"}, {"name": "optimizer/vars/68", "shape": [1, 1, 728, 1024], "dtype": "float32"}, {"name": "optimizer/vars/69", "shape": [1, 1, 728, 1024], "dtype": "float32"}, {"name": "optimizer/vars/7", "shape": [728], "dtype": "float32"}, {"name": "optimizer/vars/70", "shape": [1024], "dtype": "float32"}, {"name": "optimizer/vars/71", "shape": [1024], "dtype": "float32"}, {"name": "optimizer/vars/72", "shape": [1024], "dtype": "float32"}, {"name": "optimizer/vars/73", "shape": [1024], "dtype": "float32"}, {"name": "optimizer/vars/74", "shape": [1, 1, 728, 1024], "dtype": "float32"}, {"name": "optimizer/vars/75", "shape": [1, 1, 728, 1024], "dtype": "float32"}, {"name": "optimizer/vars/76", "shape": [1024], "dtype": "float32"}, {"name": "optimizer/vars/77", "shape": [1024], "dtype": "float32"}, {"name": "optimizer/vars/78", "shape": [1024], "dtype": "float32"}, {"name": "optimizer/vars/79", "shape": [1024], "dtype": "float32"}, {"name": "optimizer/vars/8", "shape": [728], "dtype": "float32"}, {"name": "optimizer/vars/80", "shape": [3, 3, 1024, 1], "dtype": "float32"}, {"name": "optimizer/vars/81", "shape": [3, 3, 1024, 1], "dtype": "float32"}, {"name": "optimizer/vars/82", "shape": [1, 1, 1024, 1536], "dtype": "float32"}, {"name": "optimizer/vars/83", "shape": [1, 1, 1024, 1536], "dtype": "float32"}, {"name": "optimizer/vars/84", "shape": [1536], "dtype": "float32"}, {"name": "optimizer/vars/85", "shape": [1536], "dtype": "float32"}, {"name": "optimizer/vars/86", "shape": [1536], "dtype": "float32"}, {"name": "optimizer/vars/87", "shape": [1536], "dtype": "float32"}, {"name": "optimizer/vars/88", "shape": [3, 3, 1536, 1], "dtype": "float32"}, {"name": "optimizer/vars/89", "shape": [3, 3, 1536, 1], "dtype": "float32"}, {"name": "optimizer/vars/9", "shape": [728], "dtype": "float32"}, {"name": "optimizer/vars/90", "shape": [1, 1, 1536, 2048], "dtype": "float32"}, {"name": "optimizer/vars/91", "shape": [1, 1, 1536, 2048], "dtype": "float32"}, {"name": "optimizer/vars/92", "shape": [2048], "dtype": "float32"}, {"name": "optimizer/vars/93", "shape": [2048], "dtype": "float32"}, {"name": "optimizer/vars/94", "shape": [2048], "dtype": "float32"}, {"name": "optimizer/vars/95", "shape": [2048], "dtype": "float32"}, {"name": "optimizer/vars/96", "shape": [2048], "dtype": "float32"}, {"name": "optimizer/vars/97", "shape": [2048], "dtype": "float32"}, {"name": "optimizer/vars/98", "shape": [2048], "dtype": "float32"}, {"name": "optimizer/vars/99", "shape": [2048], "dtype": "float32"}]}]}